python/chronos/test/bigdl/chronos/resources/tsppl_ckpt/tcn_tsppl_ckpt/best_model.ckpt (torch, 47389 bytes, 102 tensors)

tcn.0.conv1.weight f4 [16, 2, 3]
00000000: 18aa 3bbd 66da c63c d6e9 4a3d c6a6 443d
00000010: 1a0d 673a e600 773c 7e40 06bc 0b64 d5bc
00000020: c3be f53c 0356 26bd cbe4 26bc 1368 4fbd
00000030: 59dc a2bd 5ffe bdbb 8392 d73c 08a7 7abc
00000040: 0dc8 e9bc 4de0 b239 a374 983c e114 e4bc
00000050: ecc7 883a aee8 db3b b1e3 e7bc 02a3 27bd
00000060: af5c 83bc b0ba 263d 1338 383d 7f86 fa3c
00000070: d73e 86bc 431e aebc eb1c b83c ba17 4bbd
00000080: 0d2b 4dbc c77b 293d c808 a6bc e7a6 483d
00000090: 209c 3cbc fefe e2bc 8803 153d a4e2 ce3c
000000a0: 65a8 a1bc 875a 2ebd adaf 4b3c 55cc 53bd
000000b0: 2087 b83c 5333 333b 8f2c 3ebc e41e 6fbd
000000c0: 255c 753b e0a9 0abd d92c 46bd fe3b d1bc
000000d0: aa69 053d be25 22bd 7189 33bd 4151 e8bc
000000e0: a140 f2bb 6806 f7bc 5fe3 3ebd d8f8 423c
000000f0: b19d 3ebc 25e8 2abd ef85 243d c23a a13a
00000100: 9088 a039 e470 2e3c c5a1 a33b f094 f0bc
00000110: 5a4e b43c 8b8f a3bd 7f7d ac3c d9a4 9cbc
00000120: e1d4 893c 01d7 cabb 3989 09bd 1758 8c3c
00000130: 8caf 44bc feae 86bd c261 103d 9478 1e3d
00000140: fa64 473d 61e2 fa3c cc79 44bd ea9c 8a3b
00000150: 596d 453d 28be 3d3c 9216 aebc a2bc 4dbd
00000160: 1139 e33c cc82 01bc 2901 8c3c d185 3ebd
00000170: 89dc e33c 45f6 03bd 2346 4b3d 9465 ef3c
-0.04581651 0.024274062 0.04953941 0.04801061 0.0008813903 0.015075898 -0.008194087 -0.02604868
0.029998189 -0.04060937 -0.010186384 -0.050636362 -0.07952184 -0.0057981457 0.02631498 -0.015298612
-0.028537774 0.00034117923 0.018610304 -0.027841987 0.0010435558 0.006711087 -0.028306814 -0.04092694
-0.016035406 0.040705383 0.04497535 0.03058171 -0.016387386 -0.021254664 0.022474727 -0.049583174
-0.012522471 0.04137781 -0.02026786 0.048987295 -0.0115118325 -0.02770948 0.03638032 0.025254555
-0.019733617 -0.042566802 0.012432021 -0.051708538 0.02252537 0.0027343824 -0.011607303 -0.05837907
0.0037438956 -0.03385341 -0.048382614 -0.025541302 0.032571472 -0.039586775 -0.043832246 -0.028359057
-0.0073929583 -0.030154422 -0.046603557 0.011900149 -0.011634276 -0.041725297 0.04016679 0.0012300836
0.00030619325 0.010647032 0.0049936497 -0.029367894 0.022010017 -0.07986363 0.021055935 -0.019121574
0.016825141 -0.0061901812 -0.03357813 0.017131848 -0.012004744 -0.06576346 0.03524948 0.03868921
0.048680283 0.030625524 -0.047967717 0.0042301314 0.048199985 0.011580981 -0.021250997 -0.050228722
0.027737172 -0.00790472 0.017090397 -0.046514336 0.02781512 -0.032217283 0.049627434 0.02922324

tcn.0.conv1.bias f4 [16]
00000000: cf05 83be 78e8 803e 80d2 47bd e54c 8fbe
00000010: 47a0 d23c 8034 9a3e 2039 e53c 8db5 5b3e
00000020: 5529 893e 0af9 47be e47d 94bd 3f77 c93e
00000030: 4d9a 913d ff80 44bd 2fc5 52be 7613 e53d
-0.2559037 0.2517736 -0.048784733 -0.27988353 0.025711192 0.3011818 0.02798134 0.21455975
0.26789346 -0.19528595 -0.07250574 0.3934879 0.07109509 -0.047974583 -0.20583032 0.111853525

tcn.0.bn1.weight f4 [16]
00000000: a3b7 7b3f b8d1 863f 75bf 833f 8539 7b3f
00000010: eea9 803f 9b0e 7e3f f7c9 7e3f 6bbb 7b3f
00000020: 3430 833f b062 813f c7c0 843f 722a 7d3f
00000030: ec9c 803f 09f9 703f 9a97 7c3f d146 783f
0.9832708 1.0532751 1.0292803 0.9813464 1.0051858 0.99241036 0.99526924 0.9833285
1.0249085 1.0108242 1.0371331 0.9889289 1.0047889 0.9413 0.98668826 0.9698306

tcn.0.bn1.bias f4 [16]
00000000: 510c 53bc 3505 3a3d 2b4a b4bc 4ad1 e53b
00000010: c1c7 493d 0f79 c6bb 2d7a 4f3d 1c37 2c3c
00000020: 0708 9c3d 2af2 8d3a b07c 423d c60a b0bc
00000030: 3d04 093d f6f5 0dbd 6040 e1bc 5c95 8cbc
-0.012881354 0.045415122 -0.022008022 0.0070134746 0.049262766 -0.006056912 0.050653625 0.010511186
0.076187186 0.0010829617 0.047482193 -0.021489512 0.033451308 -0.034658395 -0.027496517 -0.017161064

tcn.0.bn1.running_mean f4 [16]
00000000: af2a 82be 8c3b 803e 10c9 44bd 8c58 90be
00000010: a699 d63c 8a26 983e fb1f df3c 71f1 5a3e
00000020: ff90 893e 00c7 46be f972 9abd 7a94 c93e
00000030: 9c15 923d 8761 46bd 966e 50be febb e43d
-0.2542319 0.2504543 -0.04804331 -0.28192556 0.026196312 0.29716903 0.02723693 0.21381165
0.26868436 -0.1941185 -0.075414605 0.3937109 0.07133028 -0.048432853 -0.20354685 0.11168669

tcn.0.bn1.running_var f4 [16]
00000000: 061c ef3b 4a9e c43b 5d51 f33b 54da 7a3b
00000010: 8f17 b23b d98e e33b 0010 a93b dc28 e33b
00000020: b7c4 d93b c682 c43b 57d6 813b ffa5 053c
00000030: 5f1a bf3b b457 ff3b 6b7b d03b 1ae6 e93b
0.007297042 0.006000315 0.0074254707 0.0038277106 0.0054349373 0.006944519 0.005159378 0.006932361
0.0066457647 0.0059970347 0.003962319 0.008157252 0.005832001 0.0077924374 0.006362369 0.007138026

tcn.0.conv2.weight f4 [16, 16, 3]
00000000: 120a dd3c 5732 0b3b a831 73bc 8bd3 4cbc
00000010: b224 9bbc 48e9 133d e9cb 0fbd ff9a 8cbd
00000020: 7a99 8f3d b5e5 0bbc 6762 c8bc fbc1 0c3d
00000030: 7945 fd3b 7e2c fabc a745 d0bc 2985 133d
00000040: 3cc5 e2ba 16fc efba 9f1a 8f3c 1933 af3c
00000050: 3f2f 533d ef2e 833c 7357 163d 76da 9a3b
00000060: f2a4 d1bb 6448 6a3d e430 003d 4d64 aabb
00000070: cc41 c4bc d1af 8b3c c27c 67bc 409a cc3c
00000080: d8f7 34bc 0ec4 14bd 365f dbbc 28fe 513c
00000090: d7ed c7bb 9f89 1f3d e016 153d 68f2 e13b
000000a0: fc11 f03c 3a52 40bd a83b 073c 18de cd3c
000000b0: f5d4 62bd aff8 fa3b dcbd b3bb 4386 b3bc
000000c0: cda1 8ebb fe46 923d 20ef 9a3c fca0 fbbc
000000d0: 095f 793c 02cb 34bc db7a 48bd 43ff 993c
000000e0: ba6a b23c 34c9 9cbc ba7c 643c dcaf a43b
000000f0: a3c8 fdbc 2a68 b4bc 379f 9b3d 4700 223d
00000100: 860e 363c 4ed7 1ebd 77c3 55bc 587e 603b
00000110: a76e 033d 20d0 4e3c 6f29 ccbc 77f1 25bd
00000120: c52e 7abd b489 f53b c19b 5dbc 98aa 61bc
00000130: 1639 b137 0c31 d03b 590f 523c d880 a03c
00000140: 14f5 ef3c 5a24 a83a 181b 453d 3d0c 79bc
00000150: ba32 1dbd ea9f 163c 518a 4cbd 1280 c2bc
00000160: 0aab 803c 39c1 fb3c 7749 30bc 67ca b2bc
00000170: 3ca1 2bbd f83d 0dbd 7f6d 173d 5a83 033c
00000180: 1ff0 563d 9ab3 f3bc 2ea6 713b 1c75 4abb
00000190: 0c59 9dbc a680 9cbd 651d 5e3d 6b4d ad3c
000001a0: 19cf 58bc d633 b9bb 01ea fcbc bf2a cdbb
000001b0: 8224 133d 3e15 9dbc d7f2 30bd e07e 16bd
000001c0: 9ddc dfbc 3ad2 693c 2a37 dc3c 53ca c8bc
000001d0: ee35 82bc 547e b0bc bed1 66bb 98fc 52bc
000001e0: 13d8 ad3c 87ac 443d 9027 33bd 5cd8 3a3d
000001f0: 5ea2 833a c18f e3bc d2a3 aebc 582b a1bc
00000200: bf97 07bd 453c f03b de5a 0e3d 2834 17bb
00000210: 21d2 c53c 4ce2 37bd 8931 3ebc 78e1 45bb
00000220: ea63 c13b 0ea8 11bd f7ee 31bd af2f 5bbc
00000230: 66b0 81bb 2f7f f6bc ae72 b2bc 8787 c7bc
00000240: 6beb 39bb 0f95 f1bc c941 c8bb 170d bb3d
00000250: 28ae 9cbc 1dc0 313c 395f 0fbd fbae 823d
00000260: 55c2 403d eacf 223d 3d09 0a3d 8e31 0cbd
00000270: acc6 06bd f8f7 73bc 3df0 57bd b193 3abc
00000280: b103 83bb 4e85 72bd 1b31 193c 336e 883c
00000290: 37ba 84bc 2b88 173d c6da 253d 06c3 ec3c
000002a0: c2d2 753d 2c81 3fba bd81 c33c c0c5 2a3c
000002b0: 2c16 1d3d 35c5 643d b000 90b9 05f9 c2bb
000002c0: e27c 9bbc d8fa 933c 7803 efbc 3b30 df3c
000002d0: 67f3 463d c8ad 503b a2a5 73bb 0303 08bd
000002e0: 8ff4 2fbd 53e2 14bd e8a6 363c 45bd dabb
000002f0: 76cd ddbc 0291 2dbc 78ff aabc 3af1 85bb
00000300: 268f 0b3d 367e 01bd 404f a53b b5d8 523c
00000310: ea4b eabc bc71 e43b b5b9 6fbd c213 fbbc
00000320: d71a f4bb 1f89 0f3d 0484 81bd a742 7d3d
00000330: 5e1d 83bb 10d4 9ebd a141 2ebd d1f1 b53c
00000340: 90dd 2abd 6992 aa3b 5c29 003d 0f32 c8bc
00000350: e9c8 923b 2571 f03c 414b 3bbc 0fac 113d
00000360: 03d6 bfbc eae0 cc3c 8366 113d 13e3 eebc
00000370: 8c70 f2bb 092e 97bc edfe 06bd 5c6f 25bc
00000380: 7d2a 46bd d78a 5dbd c23a 22bd 6c9c 13bd
00000390: a440 15bd 4b5a bbbc 67cd 5a3d feb4 073c
000003a0: b763 47bd b5aa 68bc 4804 88bd eea2 0f3c
000003b0: 2a45 3fbd 7558 7a3a b6f4 6bbb c628 1abd
000003c0: c24b c13c 1938 13bd 324a 1bbc bbcb 393d
000003d0: 1d00 cfbc 6dfc 19bd 3c46 cd3b ba33 2a3c
000003e0: 4093 9bbc 5e74 763c 4bd5 b9bc d2ba d6bc
000003f0: ad92 a3bc 1f6b 36bc 8a17 31bc 9b29 48bd
0.026982341 0.0021239722 -0.014843382 -0.012501608 -0.018938396 0.036111146 -0.035106573 -0.06865501
0.07011695 -0.008538653 -0.024460984 0.03436468 0.007729229 -0.030538794 -0.025423838 0.036015663
-0.0017301212 -0.001830938 0.017468749 0.02138667 0.05155873 0.01601359 0.03670449 0.0047257496
-0.006397837 0.057197943 0.031296626 -0.005199945 -0.023957156 0.01705161 -0.014128866 0.024975896
-0.011045419 -0.036319785 -0.026778799 0.012816943 -0.0061013508 0.038949605 0.03639877 0.006895352
0.02930545 -0.046953417 0.008253969 0.025130317 -0.055378873 0.00765904 -0.0054852795 -0.021914607
-0.0043527842 0.07142447 0.018912852 -0.030716412 0.015220412 -0.011034729 -0.04894529 0.018798476
0.021779407 -0.01913891 0.013945753 0.005025847 -0.03097946 -0.022022326 0.07598727 0.039551046
0.011111861 -0.03877955 -0.013047091 0.0034254994 0.03208795 0.012622863 -0.0249221 -0.040513482
-0.06107976 0.007493222 -0.013525904 -0.013773583 2.1126627e-05 0.006353503 0.012821042 0.019592687
0.029291667 0.0012828216 0.04812154 -0.015200672 -0.038378455 0.0091934 -0.049936596 -0.02374271
0.015706558 0.030731784 -0.010759703 -0.021825029 -0.041901812 -0.034482926 0.036969658 0.008026922
0.05247509 -0.029748727 0.0036872732 -0.0030892557 -0.0192075 -0.07641725 0.05422725 0.02115508
-0.01323297 -0.0056519313 -0.0308733 -0.0062611992 0.03592349 -0.019175168 -0.04320034 -0.03674209
-0.027326876 0.014271313 0.026881773 -0.024510538 -0.015894856 -0.021544613 -0.003522023 -0.012877606
0.021221196 0.048016097 -0.0437389 0.045616493 0.0010042896 -0.027778508 -0.02131835 -0.019673988
-0.0331037 0.0073314034 0.034754626 -0.002307186 0.024148049 -0.044893548 -0.01160849 -0.0030194204
0.0059018033 -0.03556066 -0.043440785 -0.013378068 -0.003957796 -0.030089943 -0.0217832 -0.024356617
-0.002836908 -0.029490022 -0.006111358 0.09133356 -0.019126013 0.010849026 -0.03500292 0.06381031
0.04706033 0.039749064 0.033700217 -0.034226947 -0.032904312 -0.014890663 -0.052719343 -0.011387751
-0.003998243 -0.05920916 0.009350087 0.01665411 -0.016202075 0.036995094 0.04049184 0.028901588
0.060015447 -0.000730532 0.023865575 0.010423124 0.038351223 0.055852134 -0.00027466333 -0.0059500956
-0.018980447 0.018063948 -0.029176459 0.027244678 0.04857197 0.0031841863 -0.0037177582 -0.033205997
-0.04295784 -0.036348652 0.011148192 -0.0066753947 -0.02707551 -0.010593655 -0.02087377 -0.0040875943
0.034072064 -0.031614505 0.0050448477 0.01286905 -0.028600652 0.006971566 -0.058526713 -0.03064907
-0.0074494886 0.03504288 -0.06324008 0.061831143 -0.0040013036 -0.077552915 -0.042543057 0.022210034
-0.041715205 0.0052054417 0.031289443 -0.024437932 0.0044795168 0.029350827 -0.011431516 0.03556448
-0.023417478 0.025009591 0.035498153 -0.029161012 -0.0073986705 -0.018454568 -0.03295796 -0.010097351
-0.048380364 -0.054087486 -0.039606817 -0.036037847 -0.0364386 -0.022870203 0.053418543 0.008282898
-0.04867908 -0.014200856 -0.066414416 0.008766873 -0.04669682 0.0009549924 -0.0036004013 -0.03763654
0.023595694 -0.03594217 -0.009478139 0.04536031 -0.025268609 -0.037594248 0.006264476 0.010388309
-0.018991113 0.015042393 -0.022684714 -0.02621213 -0.019967401 -0.011133938 -0.010808835 -0.048867803

tcn.0.conv2.bias f4 [16]
00000000: c1bc 5e3c 7990 3dbd d9a2 9c3d c1d3 debd
00000010: c828 6b3d a646 12be 9a91 7f3b 41b3 703d
00000020: 9512 853d 2438 e53d d25d c63d 4b97 dbbd
00000030: e7ee a0bd 2459 d53c f9fa 2e3c cd01 c63d
0.013594807 -0.046280358 0.07648248 -0.108802326 0.05741194 -0.14284763 0.0038996697 0.0587647
0.06497685 0.111923486 0.096858636 -0.10722216 -0.07858067 0.026043482 0.010679954 0.09668312

tcn.0.bn2.weight f4 [16]
00000000: 576c 793f 50ec 813f 38d5 7e3f 4758 853f
00000010: 49ec 763f 4b93 843f 5103 823f adcc 8a3f
00000020: 8d4e 7c3f 7e84 823f e82c 803f af0b 843f
00000030: 90b2 833f b4c7 7c3f c2da 843f 4517 7b3f
0.9743094 1.0150242 0.99544096 1.0417565 0.9645429 1.035745 1.0157262 1.0843712
0.9855736 1.0196683 1.0013704 1.0316066 1.0288868 0.9874222 1.037926 0.9808238

tcn.0.bn2.bias f4 [16]
00000000: 5ee6 96bc 526a fa3b 3176 2cbd 8784 303d
00000010: c0f6 d23b edb6 8f3c acfb bb3c a9f8 263d
00000020: ade6 cbbc d29c 973c 772e 8bbc 4aea f4bb
00000030: 2bcb 3d3c 9266 893c cbd3 493d 868e c1bc
-0.018420395 0.007642069 -0.042104904 0.043095138 0.0064381063 0.01754328 0.022947155 0.040764485
-0.024890268 0.018507395 -0.01698993 -0.0074742185 0.011584084 0.016772542 0.049274247 -0.02362753

tcn.0.bn2.running_mean f4 [16]
00000000: 342a 9d3d 6b1b b8bd 414c 8bbd 0b56 cabc
00000010: c4b1 cfbd 86cc aabe b0bb aebe 3df2 7abc
00000020: 71db e03d e623 243e 7751 2c3e b804 703d
00000030: db78 aebe 86b8 bcbc 7e3b 893d 07e0 d5bd
0.07674065 -0.089896046 -0.06801654 -0.024699232 -0.10141328 -0.33359164 -0.3412757 -0.015316543
0.10979355 0.16029319 0.16827951 0.05859825 -0.3407658 -0.023037206 0.067008 -0.104431204

tcn.0.bn2.running_var f4 [16]
00000000: 8701 0c3d c23f 0c3d 5500 0f3d cd26 833d
00000010: 3e6f 503d 7537 863d 5579 8b3d 5a0f 6a3d
00000020: 6d00 0b3d d387 203d 1de6 033d 5ba4 843d
00000030: 32fe 553d a4fe 233d 597e 4e3d e674 663d
0.034181144 0.03424049 0.034912426 0.06403885 0.05088734 0.06553546 0.068102516 0.057143547
0.033935953 0.039192032 0.032201875 0.06476661 0.052244373 0.040037766 0.050413463 0.056263827

tcn.0.net.0.weight f4 [16, 2, 3]
00000000: 18aa 3bbd 66da c63c d6e9 4a3d c6a6 443d
00000010: 1a0d 673a e600 773c 7e40 06bc 0b64 d5bc
00000020: c3be f53c 0356 26bd cbe4 26bc 1368 4fbd
00000030: 59dc a2bd 5ffe bdbb 8392 d73c 08a7 7abc
00000040: 0dc8 e9bc 4de0 b239 a374 983c e114 e4bc
00000050: ecc7 883a aee8 db3b b1e3 e7bc 02a3 27bd
00000060: af5c 83bc b0ba 263d 1338 383d 7f86 fa3c
00000070: d73e 86bc 431e aebc eb1c b83c ba17 4bbd
00000080: 0d2b 4dbc c77b 293d c808 a6bc e7a6 483d
00000090: 209c 3cbc fefe e2bc 8803 153d a4e2 ce3c
000000a0: 65a8 a1bc 875a 2ebd adaf 4b3c 55cc 53bd
000000b0: 2087 b83c 5333 333b 8f2c 3ebc e41e 6fbd
000000c0: 255c 753b e0a9 0abd d92c 46bd fe3b d1bc
000000d0: aa69 053d be25 22bd 7189 33bd 4151 e8bc
000000e0: a140 f2bb 6806 f7bc 5fe3 3ebd d8f8 423c
000000f0: b19d 3ebc 25e8 2abd ef85 243d c23a a13a
00000100: 9088 a039 e470 2e3c c5a1 a33b f094 f0bc
00000110: 5a4e b43c 8b8f a3bd 7f7d ac3c d9a4 9cbc
00000120: e1d4 893c 01d7 cabb 3989 09bd 1758 8c3c
00000130: 8caf 44bc feae 86bd c261 103d 9478 1e3d
00000140: fa64 473d 61e2 fa3c cc79 44bd ea9c 8a3b
00000150: 596d 453d 28be 3d3c 9216 aebc a2bc 4dbd
00000160: 1139 e33c cc82 01bc 2901 8c3c d185 3ebd
00000170: 89dc e33c 45f6 03bd 2346 4b3d 9465 ef3c
-0.04581651 0.024274062 0.04953941 0.04801061 0.0008813903 0.015075898 -0.008194087 -0.02604868
0.029998189 -0.04060937 -0.010186384 -0.050636362 -0.07952184 -0.0057981457 0.02631498 -0.015298612
-0.028537774 0.00034117923 0.018610304 -0.027841987 0.0010435558 0.006711087 -0.028306814 -0.04092694
-0.016035406 0.040705383 0.04497535 0.03058171 -0.016387386 -0.021254664 0.022474727 -0.049583174
-0.012522471 0.04137781 -0.02026786 0.048987295 -0.0115118325 -0.02770948 0.03638032 0.025254555
-0.019733617 -0.042566802 0.012432021 -0.051708538 0.02252537 0.0027343824 -0.011607303 -0.05837907
0.0037438956 -0.03385341 -0.048382614 -0.025541302 0.032571472 -0.039586775 -0.043832246 -0.028359057
-0.0073929583 -0.030154422 -0.046603557 0.011900149 -0.011634276 -0.041725297 0.04016679 0.0012300836
0.00030619325 0.010647032 0.0049936497 -0.029367894 0.022010017 -0.07986363 0.021055935 -0.019121574
0.016825141 -0.0061901812 -0.03357813 0.017131848 -0.012004744 -0.06576346 0.03524948 0.03868921
0.048680283 0.030625524 -0.047967717 0.0042301314 0.048199985 0.011580981 -0.021250997 -0.050228722
0.027737172 -0.00790472 0.017090397 -0.046514336 0.02781512 -0.032217283 0.049627434 0.02922324

tcn.0.net.0.bias f4 [16]
00000000: cf05 83be 78e8 803e 80d2 47bd e54c 8fbe
00000010: 47a0 d23c 8034 9a3e 2039 e53c 8db5 5b3e
00000020: 5529 893e 0af9 47be e47d 94bd 3f77 c93e
00000030: 4d9a 913d ff80 44bd 2fc5 52be 7613 e53d
-0.2559037 0.2517736 -0.048784733 -0.27988353 0.025711192 0.3011818 0.02798134 0.21455975
0.26789346 -0.19528595 -0.07250574 0.3934879 0.07109509 -0.047974583 -0.20583032 0.111853525

tcn.0.net.1.weight f4 [16]
00000000: a3b7 7b3f b8d1 863f 75bf 833f 8539 7b3f
00000010: eea9 803f 9b0e 7e3f f7c9 7e3f 6bbb 7b3f
00000020: 3430 833f b062 813f c7c0 843f 722a 7d3f
00000030: ec9c 803f 09f9 703f 9a97 7c3f d146 783f
0.9832708 1.0532751 1.0292803 0.9813464 1.0051858 0.99241036 0.99526924 0.9833285
1.0249085 1.0108242 1.0371331 0.9889289 1.0047889 0.9413 0.98668826 0.9698306

tcn.0.net.1.bias f4 [16]
00000000: 510c 53bc 3505 3a3d 2b4a b4bc 4ad1 e53b
00000010: c1c7 493d 0f79 c6bb 2d7a 4f3d 1c37 2c3c
00000020: 0708 9c3d 2af2 8d3a b07c 423d c60a b0bc
00000030: 3d04 093d f6f5 0dbd 6040 e1bc 5c95 8cbc
-0.012881354 0.045415122 -0.022008022 0.0070134746 0.049262766 -0.006056912 0.050653625 0.010511186
0.076187186 0.0010829617 0.047482193 -0.021489512 0.033451308 -0.034658395 -0.027496517 -0.017161064

tcn.0.net.1.running_mean f4 [16]
00000000: af2a 82be 8c3b 803e 10c9 44bd 8c58 90be
00000010: a699 d63c 8a26 983e fb1f df3c 71f1 5a3e
00000020: ff90 893e 00c7 46be f972 9abd 7a94 c93e
00000030: 9c15 923d 8761 46bd 966e 50be febb e43d
-0.2542319 0.2504543 -0.04804331 -0.28192556 0.026196312 0.29716903 0.02723693 0.21381165
0.26868436 -0.1941185 -0.075414605 0.3937109 0.07133028 -0.048432853 -0.20354685 0.11168669

tcn.0.net.1.running_var f4 [16]
00000000: 061c ef3b 4a9e c43b 5d51 f33b 54da 7a3b
00000010: 8f17 b23b d98e e33b 0010 a93b dc28 e33b
00000020: b7c4 d93b c682 c43b 57d6 813b ffa5 053c
00000030: 5f1a bf3b b457 ff3b 6b7b d03b 1ae6 e93b
0.007297042 0.006000315 0.0074254707 0.0038277106 0.0054349373 0.006944519 0.005159378 0.006932361
0.0066457647 0.0059970347 0.003962319 0.008157252 0.005832001 0.0077924374 0.006362369 0.007138026

tcn.0.net.5.weight f4 [16, 16, 3]
00000000: 120a dd3c 5732 0b3b a831 73bc 8bd3 4cbc
00000010: b224 9bbc 48e9 133d e9cb 0fbd ff9a 8cbd
00000020: 7a99 8f3d b5e5 0bbc 6762 c8bc fbc1 0c3d
00000030: 7945 fd3b 7e2c fabc a745 d0bc 2985 133d
00000040: 3cc5 e2ba 16fc efba 9f1a 8f3c 1933 af3c
00000050: 3f2f 533d ef2e 833c 7357 163d 76da 9a3b
00000060: f2a4 d1bb 6448 6a3d e430 003d 4d64 aabb
00000070: cc41 c4bc d1af 8b3c c27c 67bc 409a cc3c
00000080: d8f7 34bc 0ec4 14bd 365f dbbc 28fe 513c
00000090: d7ed c7bb 9f89 1f3d e016 153d 68f2 e13b
000000a0: fc11 f03c 3a52 40bd a83b 073c 18de cd3c
000000b0: f5d4 62bd aff8 fa3b dcbd b3bb 4386 b3bc
000000c0: cda1 8ebb fe46 923d 20ef 9a3c fca0 fbbc
000000d0: 095f 793c 02cb 34bc db7a 48bd 43ff 993c
000000e0: ba6a b23c 34c9 9cbc ba7c 643c dcaf a43b
000000f0: a3c8 fdbc 2a68 b4bc 379f 9b3d 4700 223d
00000100: 860e 363c 4ed7 1ebd 77c3 55bc 587e 603b
00000110: a76e 033d 20d0 4e3c 6f29 ccbc 77f1 25bd
00000120: c52e 7abd b489 f53b c19b 5dbc 98aa 61bc
00000130: 1639 b137 0c31 d03b 590f 523c d880 a03c
00000140: 14f5 ef3c 5a24 a83a 181b 453d 3d0c 79bc
00000150: ba32 1dbd ea9f 163c 518a 4cbd 1280 c2bc
00000160: 0aab 803c 39c1 fb3c 7749 30bc 67ca b2bc
00000170: 3ca1 2bbd f83d 0dbd 7f6d 173d 5a83 033c
00000180: 1ff0 563d 9ab3 f3bc 2ea6 713b 1c75 4abb
00000190: 0c59 9dbc a680 9cbd 651d 5e3d 6b4d ad3c
000001a0: 19cf 58bc d633 b9bb 01ea fcbc bf2a cdbb
000001b0: 8224 133d 3e15 9dbc d7f2 30bd e07e 16bd
000001c0: 9ddc dfbc 3ad2 693c 2a37 dc3c 53ca c8bc
000001d0: ee35 82bc 547e b0bc bed1 66bb 98fc 52bc
000001e0: 13d8 ad3c 87ac 443d 9027 33bd 5cd8 3a3d
000001f0: 5ea2 833a c18f e3bc d2a3 aebc 582b a1bc
00000200: bf97 07bd 453c f03b de5a 0e3d 2834 17bb
00000210: 21d2 c53c 4ce2 37bd 8931 3ebc 78e1 45bb
00000220: ea63 c13b 0ea8 11bd f7ee 31bd af2f 5bbc
00000230: 66b0 81bb 2f7f f6bc ae72 b2bc 8787 c7bc
00000240: 6beb 39bb 0f95 f1bc c941 c8bb 170d bb3d
00000250: 28ae 9cbc 1dc0 313c 395f 0fbd fbae 823d
00000260: 55c2 403d eacf 223d 3d09 0a3d 8e31 0cbd
00000270: acc6 06bd f8f7 73bc 3df0 57bd b193 3abc
00000280: b103 83bb 4e85 72bd 1b31 193c 336e 883c
00000290: 37ba 84bc 2b88 173d c6da 253d 06c3 ec3c
000002a0: c2d2 753d 2c81 3fba bd81 c33c c0c5 2a3c
000002b0: 2c16 1d3d 35c5 643d b000 90b9 05f9 c2bb
000002c0: e27c 9bbc d8fa 933c 7803 efbc 3b30 df3c
000002d0: 67f3 463d c8ad 503b a2a5 73bb 0303 08bd
000002e0: 8ff4 2fbd 53e2 14bd e8a6 363c 45bd dabb
000002f0: 76cd ddbc 0291 2dbc 78ff aabc 3af1 85bb
00000300: 268f 0b3d 367e 01bd 404f a53b b5d8 523c
00000310: ea4b eabc bc71 e43b b5b9 6fbd c213 fbbc
00000320: d71a f4bb 1f89 0f3d 0484 81bd a742 7d3d
00000330: 5e1d 83bb 10d4 9ebd a141 2ebd d1f1 b53c
00000340: 90dd 2abd 6992 aa3b 5c29 003d 0f32 c8bc
00000350: e9c8 923b 2571 f03c 414b 3bbc 0fac 113d
00000360: 03d6 bfbc eae0 cc3c 8366 113d 13e3 eebc
00000370: 8c70 f2bb 092e 97bc edfe 06bd 5c6f 25bc
00000380: 7d2a 46bd d78a 5dbd c23a 22bd 6c9c 13bd
00000390: a440 15bd 4b5a bbbc 67cd 5a3d feb4 073c
000003a0: b763 47bd b5aa 68bc 4804 88bd eea2 0f3c
000003b0: 2a45 3fbd 7558 7a3a b6f4 6bbb c628 1abd
000003c0: c24b c13c 1938 13bd 324a 1bbc bbcb 393d
000003d0: 1d00 cfbc 6dfc 19bd 3c46 cd3b ba33 2a3c
000003e0: 4093 9bbc 5e74 763c 4bd5 b9bc d2ba d6bc
000003f0: ad92 a3bc 1f6b 36bc 8a17 31bc 9b29 48bd
0.026982341 0.0021239722 -0.014843382 -0.012501608 -0.018938396 0.036111146 -0.035106573 -0.06865501
0.07011695 -0.008538653 -0.024460984 0.03436468 0.007729229 -0.030538794 -0.025423838 0.036015663
-0.0017301212 -0.001830938 0.017468749 0.02138667 0.05155873 0.01601359 0.03670449 0.0047257496
-0.006397837 0.057197943 0.031296626 -0.005199945 -0.023957156 0.01705161 -0.014128866 0.024975896
-0.011045419 -0.036319785 -0.026778799 0.012816943 -0.0061013508 0.038949605 0.03639877 0.006895352
0.02930545 -0.046953417 0.008253969 0.025130317 -0.055378873 0.00765904 -0.0054852795 -0.021914607
-0.0043527842 0.07142447 0.018912852 -0.030716412 0.015220412 -0.011034729 -0.04894529 0.018798476
0.021779407 -0.01913891 0.013945753 0.005025847 -0.03097946 -0.022022326 0.07598727 0.039551046
0.011111861 -0.03877955 -0.013047091 0.0034254994 0.03208795 0.012622863 -0.0249221 -0.040513482
-0.06107976 0.007493222 -0.013525904 -0.013773583 2.1126627e-05 0.006353503 0.012821042 0.019592687
0.029291667 0.0012828216 0.04812154 -0.015200672 -0.038378455 0.0091934 -0.049936596 -0.02374271
0.015706558 0.030731784 -0.010759703 -0.021825029 -0.041901812 -0.034482926 0.036969658 0.008026922
0.05247509 -0.029748727 0.0036872732 -0.0030892557 -0.0192075 -0.07641725 0.05422725 0.02115508
-0.01323297 -0.0056519313 -0.0308733 -0.0062611992 0.03592349 -0.019175168 -0.04320034 -0.03674209
-0.027326876 0.014271313 0.026881773 -0.024510538 -0.015894856 -0.021544613 -0.003522023 -0.012877606
0.021221196 0.048016097 -0.0437389 0.045616493 0.0010042896 -0.027778508 -0.02131835 -0.019673988
-0.0331037 0.0073314034 0.034754626 -0.002307186 0.024148049 -0.044893548 -0.01160849 -0.0030194204
0.0059018033 -0.03556066 -0.043440785 -0.013378068 -0.003957796 -0.030089943 -0.0217832 -0.024356617
-0.002836908 -0.029490022 -0.006111358 0.09133356 -0.019126013 0.010849026 -0.03500292 0.06381031
0.04706033 0.039749064 0.033700217 -0.034226947 -0.032904312 -0.014890663 -0.052719343 -0.011387751
-0.003998243 -0.05920916 0.009350087 0.01665411 -0.016202075 0.036995094 0.04049184 0.028901588
0.060015447 -0.000730532 0.023865575 0.010423124 0.038351223 0.055852134 -0.00027466333 -0.0059500956
-0.018980447 0.018063948 -0.029176459 0.027244678 0.04857197 0.0031841863 -0.0037177582 -0.033205997
-0.04295784 -0.036348652 0.011148192 -0.0066753947 -0.02707551 -0.010593655 -0.02087377 -0.0040875943
0.034072064 -0.031614505 0.0050448477 0.01286905 -0.028600652 0.006971566 -0.058526713 -0.03064907
-0.0074494886 0.03504288 -0.06324008 0.061831143 -0.0040013036 -0.077552915 -0.042543057 0.022210034
-0.041715205 0.0052054417 0.031289443 -0.024437932 0.0044795168 0.029350827 -0.011431516 0.03556448
-0.023417478 0.025009591 0.035498153 -0.029161012 -0.0073986705 -0.018454568 -0.03295796 -0.010097351
-0.048380364 -0.054087486 -0.039606817 -0.036037847 -0.0364386 -0.022870203 0.053418543 0.008282898
-0.04867908 -0.014200856 -0.066414416 0.008766873 -0.04669682 0.0009549924 -0.0036004013 -0.03763654
0.023595694 -0.03594217 -0.009478139 0.04536031 -0.025268609 -0.037594248 0.006264476 0.010388309
-0.018991113 0.015042393 -0.022684714 -0.02621213 -0.019967401 -0.011133938 -0.010808835 -0.048867803

tcn.0.net.5.bias f4 [16]
00000000: c1bc 5e3c 7990 3dbd d9a2 9c3d c1d3 debd
00000010: c828 6b3d a646 12be 9a91 7f3b 41b3 703d
00000020: 9512 853d 2438 e53d d25d c63d 4b97 dbbd
00000030: e7ee a0bd 2459 d53c f9fa 2e3c cd01 c63d
0.013594807 -0.046280358 0.07648248 -0.108802326 0.05741194 -0.14284763 0.0038996697 0.0587647
0.06497685 0.111923486 0.096858636 -0.10722216 -0.07858067 0.026043482 0.010679954 0.09668312

tcn.0.net.6.weight f4 [16]
00000000: 576c 793f 50ec 813f 38d5 7e3f 4758 853f
00000010: 49ec 763f 4b93 843f 5103 823f adcc 8a3f
00000020: 8d4e 7c3f 7e84 823f e82c 803f af0b 843f
00000030: 90b2 833f b4c7 7c3f c2da 843f 4517 7b3f
0.9743094 1.0150242 0.99544096 1.0417565 0.9645429 1.035745 1.0157262 1.0843712
0.9855736 1.0196683 1.0013704 1.0316066 1.0288868 0.9874222 1.037926 0.9808238

tcn.0.net.6.bias f4 [16]
00000000: 5ee6 96bc 526a fa3b 3176 2cbd 8784 303d
00000010: c0f6 d23b edb6 8f3c acfb bb3c a9f8 263d
00000020: ade6 cbbc d29c 973c 772e 8bbc 4aea f4bb
00000030: 2bcb 3d3c 9266 893c cbd3 493d 868e c1bc
-0.018420395 0.007642069 -0.042104904 0.043095138 0.0064381063 0.01754328 0.022947155 0.040764485
-0.024890268 0.018507395 -0.01698993 -0.0074742185 0.011584084 0.016772542 0.049274247 -0.02362753

tcn.0.net.6.running_mean f4 [16]
00000000: 342a 9d3d 6b1b b8bd 414c 8bbd 0b56 cabc
00000010: c4b1 cfbd 86cc aabe b0bb aebe 3df2 7abc
00000020: 71db e03d e623 243e 7751 2c3e b804 703d
00000030: db78 aebe 86b8 bcbc 7e3b 893d 07e0 d5bd
0.07674065 -0.089896046 -0.06801654 -0.024699232 -0.10141328 -0.33359164 -0.3412757 -0.015316543
0.10979355 0.16029319 0.16827951 0.05859825 -0.3407658 -0.023037206 0.067008 -0.104431204

tcn.0.net.6.running_var f4 [16]
00000000: 8701 0c3d c23f 0c3d 5500 0f3d cd26 833d
00000010: 3e6f 503d 7537 863d 5579 8b3d 5a0f 6a3d
00000020: 6d00 0b3d d387 203d 1de6 033d 5ba4 843d
00000030: 32fe 553d a4fe 233d 597e 4e3d e674 663d
0.034181144 0.03424049 0.034912426 0.06403885 0.05088734 0.06553546 0.068102516 0.057143547
0.033935953 0.039192032 0.032201875 0.06476661 0.052244373 0.040037766 0.050413463 0.056263827

tcn.0.downsample.weight f4 [16, 2, 1]
00000000: ffc2 c23c eb20 99bc 5517 0c3d d925 8abb
00000010: 1857 7fb9 dc83 4f3c 7cb0 a7bb d359 a63c
00000020: 360e a53c 5361 88bd 2f3c b4bb c517 b73c
00000030: b0b6 e4bc 147b d63c bd3f de3d 5b3f 85bd
00000040: f231 fd3c 5cb9 45bd 596e 06bd e6bc 45bd
00000050: e3ab 79bc 52ff aa3d 0fa4 cb3c 2b1d 1b3d
00000060: a024 b8ba ebc6 023d 55ac 323c 644d 51bd
00000070: a000 a83c df71 ffbc 4916 b83c aab8 db39
0.023774622 -0.018692454 0.03420194 -0.0042159376 -0.0002435114 0.012665715 -0.005117474 0.020306503
0.020148378 -0.06659188 -0.0055003385 0.022350201 -0.027919143 0.026181735 0.10852001 -0.06506225
0.030907605 -0.048272476 -0.03282008 -0.04827585 -0.015238735 0.0834948 0.024858503 0.037869614
-0.0014049001 0.031927984 0.010905345 -0.051099196 0.02050811 -0.031182228 0.022471564 0.0004190852

tcn.0.downsample.bias f4 [16]
00000000: a1aa 59be 93a1 d4be d650 a9be 41ed d1be
00000010: 45aa 133d 3a48 cb3e 8558 fdbe a9cd f0bd
00000020: 2be1 013f 221e 5a3d d207 11bf 1434 223f
00000030: d12a 233f 2aa6 3a3d b639 043f 43b8 163f
-0.21256496 -0.4152952 -0.33069485 -0.41001323 0.036051054 0.39703542 -0.49481598 -0.117579766
0.50734204 0.053251393 -0.5665256 0.63360715 0.6373721 0.045568623 0.5165056 0.5887491

tcn.1.conv1.weight f4 [16, 16, 3]
00000000: 8156 2fbd 48fe bb3b c5ec ae3c 6690 173d
00000010: d74f 823c b516 47bd 5b37 57bb 448c 4abd
00000020: 0d5a 6c3d 4649 4e3d c229 1e3b 02ff ee3c
00000030: 4d5c 853d c63f 1a3c 4180 de3c c561 853a
00000040: cfea c5bc a004 8abc 6375 413d ccc6 07bb
00000050: f2e5 87bc 1444 b63c 7e3d 3abd 6788 b9bb
00000060: 7694 9c3c 3812 103d c16c c0bc df7c 303d
00000070: f2b3 db3b ffa7 3a3d 3d5b 003b e9bb 873c
00000080: c4af 033c d285 fe3c 1a01 b03d 759f 8f3c
00000090: c2cb 073d c563 91bc dc8a 39bc 0288 a23c
000000a0: 8a13 e63c 93ac 3b3c 6557 743d 4738 0d3d
000000b0: 45f3 28bd 79ac a53c e831 cd3c 7660 b73c
000000c0: cc2c f53c 04c1 303b 3b08 013d 5040 72bd
000000d0: fac2 673c 8879 303a c159 a1bc 81dc baba
000000e0: 7d36 703d 8085 aebc 7d39 603c 53a0 69bd
000000f0: a755 17bd 59c1 1a3d 2272 083d c81c 213c
00000100: 2818 453d a9b3 1bbd 01fb ccbb d438 08bb
00000110: 0f71 3cbc 277d a8bc 409b f4bc 49c9 003d
00000120: ece4 2abd c1d8 bf3a 9d19 d93c c229 8bbd
00000130: e3e6 2abd c531 c53c 4853 d0bc c572 ebbc
00000140: 4520 f73c 30d9 30bd 0f06 4f3c 4edc 3fbd
00000150: facf 37bd 137b ba3c 5c66 3abc a597 b7bc
00000160: ebef 7cbc c33e f13c be12 adbc 260e 023d
00000170: 4351 fd3b 4063 89bd 2134 373c 3939 90bc
00000180: ba49 4f3c acad b23c 5819 903c 978d 9cbc
00000190: f2c2 9a3c 1cee 093c 0a7a 30bc 4f4b c93c
000001a0: 7a25 41bc 9dcf 443c 7d83 7c3d ea04 173d
000001b0: aec7 bdbb 6b9b 123d e74c c33c 8cd9 ca3c
000001c0: 7a9e 15bb d26a 723b 82ed 6f3d caf5 533c
000001d0: 5727 1fba 86fd d93c 1aaf 1e3d 9ee2 a2bd
000001e0: 62a5 4abc 2cfe c33b 1b38 8ebb f54c a8bc
000001f0: a0f4 d9bc 10aa a6bb e57e 3ebd ea68 2a3c
00000200: c408 47bc cec6 313c c8f8 b63c 6bac 893d
00000210: b61d 73bc 7819 453b 0627 10bd 6654 a23c
00000220: 4c83 88bb 6a6e 71bc 298f e53c 33b2 ee3c
00000230: 3e72 043d 35c5 0a3c 8c34 a53b 7b95 d53c
00000240: 760d f4bc 7339 96bc fc7c 82bd d9ff 64bc
00000250: 0553 a43c 99b6 61bd 9cd1 7cbd b021 25bd
00000260: c5eb 953c f9e8 93bd 0e20 08bd 0a56 0cbd
00000270: a5cd 89bc 7d67 81bc 86e9 97bc 7574 96bc
00000280: a31e 3e3b 11f4 9e3c ae7b e1bc 91dd 813b
00000290: ad5e 6d3c 4e0a e1bc bc47 923c 46be 84bd
000002a0: ea49 13bd 17a8 13bc 75e0 fbbb ee5d 9dbc
000002b0: 5886 fbbc 0288 65bd 8c7a dabb 2e17 423b
000002c0: 9d47 ca3c 0b1f 1fbd d24f babc 1ffa 1fbd
000002d0: 5296 26bd 8f2e 853c 85f1 093d 977a 0b3c
000002e0: 9e3c 91bc a204 64bd 2fef c0bc 1e54 49bc
000002f0: 2ce7 0abd 3569 26bd 42a7 b7bc 835e 12bc
00000300: ff4b b23c ed21 7cbc 35fb f5bc cdfa 153d
00000310: e6e5 34bd 9805 10bd 9a07 bbbc 6673 a43c
00000320: cfad 0a3d 2dcb dd3b 7596 0c3d 76d1 23bd
00000330: ef5e ad3c 76e4 90bc 277a ab3b 9eba 2c3d
00000340: c7cd 0a3d 9265 813c aa1e 1dbc 8f0a de3c
00000350: 75b4 88bd 03ea c7bc f911 e4bc fc9a 76bd
00000360: ef66 6dbc 61da 0e3b 0030 e734 ac7c b9bc
00000370: 4a55 783c 33c5 05bd 715f 083d d8a8 e43c
00000380: 302a 3d3d 9017 0b3d 8cd1 383d 0db2 8dbb
00000390: 78ac d2ba d93f dabb bcb5 70bd f3f5 bd3d
000003a0: 326d 5a3b c428 f5bc b092 2a3d 116f 843b
000003b0: 23d3 2fbd e08c 903c a8a9 0bbc b906 f9bc
000003c0: 26c0 acbc 6d0c 753c 948c 42bd d788 70bc
000003d0: 13da b0bc 0af2 58bb 08e4 11ba 4ca4 41bc
000003e0: 44da ea3b 21fa 2f3d b95d 833b c500 883d
000003f0: b230 2fbd e0d1 cf3c 12e7 9ebc 0e70 ccba
-0.042807106 0.0057371 0.021353135 0.037002943 0.015907211 -0.04860564 -0.003283939 -0.049450174
0.057703067 0.050362848 0.0024133776 0.029174332 0.065117456 0.009414619 0.027160766 0.0010176232
-0.024159817 -0.016847908 0.04723109 -0.0020717857 -0.016589139 0.022249259 -0.0454688 -0.0056620124
0.01911376 0.035173625 -0.023489358 0.043087836 0.0067048008 0.04557037 0.0019585632 0.016569095
0.008037511 0.03106967 0.0859396 0.01753209 0.033153303 -0.01774777 -0.011324611 0.019840244
0.028085489 0.011454719 0.05965366 0.0344775 -0.041247625 0.020223843 0.025048211 0.022384863
0.029928587 0.0026970515 0.03150199 -0.059143364 0.014145607 0.0006731977 -0.019696118 -0.0014256389
0.058645714 -0.021303892 0.013685581 -0.057037663 -0.03694692 0.037782047 0.03331197 0.009833522
0.04811874 -0.038013134 -0.006255508 -0.0020785825 -0.011501565 -0.02056749 -0.029859185 0.03144196
-0.041722223 0.0014636741 0.026501471 -0.06795074 -0.041724097 0.024071584 -0.025430337 -0.02874125
0.030166754 -0.043175876 0.012635722 -0.04684096 -0.044876076 0.022763764 -0.011376943 -0.022411177
-0.01543806 0.029448872 -0.021127101 0.031751774 0.0077306344 -0.067083836 0.011181862 -0.01760541
0.012651855 0.021811329 0.01759021 -0.019110484 0.018891785 0.008418586 -0.010771284 0.024572043
-0.01178872 0.0120123895 0.061648834 0.03686992 -0.005791626 0.03579275 0.02384038 0.024761938
-0.0022830055 0.003698994 0.058576114 0.012937019 -0.0006071231 0.026610147 0.03874121 -0.0795338
-0.012368532 0.0059812274 -0.0043401844 -0.020544508 -0.026605904 -0.005086191 -0.046507735 0.01040099
-0.012148086 0.010850621 0.022335425 0.06722339 -0.014838627 0.0030074995 -0.035193466 0.019815635
-0.0041660424 -0.014735797 0.028022366 0.029137706 0.032335512 0.008469869 0.0050416645 0.026072254
-0.029791575 -0.01833794 -0.06371495 -0.013977014 0.020059118 -0.05510578 -0.061723337 -0.04031533
0.0183009 -0.072221704 -0.033233695 -0.03426174 -0.016821692 -0.015796417 -0.01854397 -0.018366078
0.002900996 0.01940349 -0.027524795 0.0039631804 0.0144879045 -0.027470734 0.017856471 -0.06481604
-0.03595916 -0.009012244 -0.0076866695 -0.019209828 -0.030703709 -0.05603791 -0.0066674408 0.0029615867
0.024692351 -0.038847964 -0.02274314 -0.039056893 -0.0406707 0.016257552 0.033677597 0.008513114
-0.0177291 -0.05566848 -0.023551552 -0.0122881215 -0.03391187 -0.040627677 -0.022418622 -0.008933666
0.021764753 -0.015388948 -0.030027011 0.036616135 -0.04416456 -0.035161585 -0.022830773 0.020074558
0.033857163 0.006768605 0.034323175 -0.03999468 0.021163432 -0.017687064 0.0052330676 0.04217016
0.03388765 0.015795503 -0.00958983 0.027104644 -0.066750444 -0.024403578 -0.027840601 -0.0602064
-0.014489873 0.0021797644 4.3062028e-07 -0.022642456 0.015157053 -0.032658767 0.033294145 0.027912542
0.04618281 0.033958018 0.045121714 -0.004324204 -0.0016073128 -0.0066604433 -0.058767065 0.09275427
0.0033329246 -0.029926665 0.0416438 0.0040415605 -0.042925965 0.0176453 -0.008524336 -0.030398713
-0.021087717 0.014956576 -0.047497347 -0.014681063 -0.02158836 -0.003310325 -0.00055652903 -0.011818957
0.0071671326 0.04296315 0.0040089753 0.06640772 -0.04277105 0.02536863 -0.019397292 -0.001559736

tcn.1.conv1.bias f4 [16]
00000000: 50ce e7bd 4e8e cc3d e4c4 e73d b8dd 96ba
00000010: c1b9 6b3c b6ad ed3d fc4a 73bd f727 40bd
00000020: c4e7 81bd f978 9b3c 515e 413d 17c9 f23d
00000030: 9d10 d8bd d9c2 f83b 749d c5bd 8185 13be
-0.11318648 0.0998808 0.11316851 -0.0011510169 0.014387549 0.11605398 -0.059397683 -0.046913113
-0.06343034 0.018978583 0.047209088 0.11854761 -0.10550044 0.007591587 -0.096491724 -0.14406396

tcn.1.bn1.weight f4 [16]
00000000: 804c 813f 9b12 773f 32c1 7d3f aa92 833f
00000010: fb85 7a3f 0c3d 853f 1f6a 823f 318c 743f
00000020: 19e8 803f 076e 7f3f 54c9 7f3f ae44 853f
00000030: 4881 7a3f 1e02 7c3f 0a6a 823f b69a 743f
1.0101471 0.96512765 0.9912292 1.0279133 0.9786069 1.0409255 1.0188636 0.95526415
1.007083 0.99777263 0.9991658 1.0411584 0.9785352 0.9844073 1.018861 0.9554857

tcn.1.bn1.bias f4 [16]
00000000: 940e 073d 2e84 aebc ecc3 ffbb d9b4 f43b
00000010: 07d6 863b 15d0 eb3c b546 a43c 7c7e 08bb
00000020: 7652 763b ed07 c83c 966c 283d 2c88 a13c
00000030: 2661 4fba 0957 8f3b 7328 ec3c 6c17 5239
0.032972887 -0.021303263 -0.007805338 0.007467848 0.0041148695 0.028785745 0.020053247 -0.0020827344
0.0037585772 0.024417842 0.04111918 0.019718252 -0.00079108996 0.004374389 0.028827881 0.00020035886

tcn.1.bn1.running_mean f4 [16]
00000000: 3030 183e 609f bdba a110 923e 3d06 c5be
00000010: 06ec fe3c 916f 263e dff9 40be 3d31 27be
00000020: a074 763e f873 ffbb b846 0b3e caa6 a73e
00000030: 56ba 42be 4fec 59be 11ee 8f3b 6afb e0be
0.14862132 -0.0014467053 0.28528312 -0.38481322 0.031118404 0.16253497 -0.18845318 -0.16327377
0.24067926 -0.007795807 0.13601196 0.32744437 -0.19016394 -0.21281551 0.0043923934 -0.43941814

tcn.1.bn1.running_var f4 [16]
00000000: 4478 4a3d 2ad2 183d 871f d83c 0423 723d
00000010: 879a 4f3d b75a b93c 4fc3 e43c dc20 633d
00000020: f3d5 1b3d 041d f13c 6c4e cc3c c5e6 f83c
00000030: d716 253d 417e 433d 92a8 593d 4d35 0a3d
0.0494311 0.037309803 0.02638222 0.059115425 0.050684478 0.022626264 0.027925162 0.05545126
0.038045835 0.029432781 0.024939738 0.030383477 0.040304985 0.047727827 0.053139277 0.033742238

tcn.1.conv2.weight f4 [16, 16, 3]
00000000: e4a2 29bc 76bc a8bd 46d8 113d 1f3e 9eba
00000010: 6d6f 9bbc c214 b5bc 183f 53bd 3c90 303c
00000020: cbb7 393d 2506 3fbc 0e0e 9abd 10f1 b43d
00000030: 050a 1f3d 1517 983b 82f9 cbbb 7892 f23a
00000040: d086 54bb 20e9 0e3d 20f0 1abc 7707 01bd
00000050: bcf2 28bd d07f ddbc 6c59 17bd 10ad d23c
00000060: e4c6 103d 19cc 1f3c 4ccf 483d 6350 24bd
00000070: b87b 3bbd 873d 823b 2428 92bc b2ac 72bc
00000080: 5a25 45bb 053d d6bb ddf8 5ebc 389e 973c
00000090: 8dab 05ba fcc5 413b 336b c0bc 4cd4 353d
000000a0: 050f ccbc db62 39bc 3490 a9bb ec7d 56bd
000000b0: de3b fabb c148 bc3b 655c 14bc 401f 95bc
000000c0: 1ff7 eb3c 10a0 15bd 02e5 8f3c 90dd 87bd
000000d0: d22f fabc 457e 6fbc a26d 6ebb da56 babc
000000e0: adc0 16bc c433 043d 6666 e63b c133 cebb
000000f0: 03ec a1bd a48b 25bd e8fd 85bb c25e 6abc
00000100: bb17 92bb d37c 803a 97e4 72bd c6a2 85bb
00000110: 2e72 853c c295 f63c 1283 87bc ed47 3b3c
00000120: 54b8 16bd 85aa 82bd 3203 b33c ed99 06bd
00000130: da96 36bc 6da6 1b3d 1220 0cbc dce7 dbbc
00000140: 6924 1abc f32a 8dbd 4e4e 6fbd 6ca9 12bd
00000150: c444 83bd d3a2 08bd 7b9f abbc c390 0f3b
00000160: cca0 a23c 9180 c73c a4d8 01bd f113 1ebd
00000170: 9d77 42bd aeeb 08bd d661 ddbc 3971 b5bc
00000180: 6ffe 2f3c b3eb b03d d652 0f3d b756 d8bc
00000190: 087b 1f3c 29b5 4a3c 6c24 753c 3807 da3c
000001a0: 8527 3e3c a6d1 85bc b674 e03c 58b1 8cbc
000001b0: 0aee 7c3c 8eb2 853d 8e1c 963c 6c91 243c
000001c0: 877c 343c 7de3 2bbd e158 3f3d eae8 dabc
000001d0: bd92 fe3c 50ae 09bb 7061 4c3d 170e 40bd
000001e0: 53b8 293d 69ea 8a3c ae4f 003d e72a 133c
000001f0: 1b71 273d a08a 55bd 61b8 213b f0a8 f33c
00000200: 676b a2bc 9826 e53c 7925 073c eab7 473c
00000210: 5b9f 133d 81bd 653c c375 13bc e1cf 80bc
00000220: f020 013d 3ee2 fdbb cd41 efbc 480f 353d
00000230: 1a8f a33b d8ab f43c 999b 78bb 95dd 59bb
00000240: ac80 56bd 4f63 cd3d cf87 383d 65f1 eb3c
00000250: 8a60 563d dc0f 7bbc 3cb1 eb3c 2d21 b13a
00000260: f787 9abc 7c77 fb3c fadd aebb f5a1 3bbd
00000270: ac2e 5a3b 80a7 803d fac0 3b3c f50f 7a3c
00000280: 8eeb 213d 9af1 fb3c 66b9 5bbd ab66 793c
00000290: 11de 28bd cc83 b9bb b491 ae3c 8ab6 643c
000002a0: c15d a2bc 7ff8 243c 86b7 0bbb d76d 4d3d
000002b0: 9258 69bd 7e24 723b 1f61 7e3d d92d fc3b
000002c0: 24c2 25bc 3044 ad3c 2301 a9bc 0217 163b
000002d0: 99e0 933c be1f 28bb ccbb 2b3d 6103 f33c
000002e0: d568 e7bb 9a0e 013c 072d 09bd 1837 d23c
000002f0: 7ab7 313d e941 623d 2ff0 16bc ba04 643b
00000300: dfb4 82bb 3c53 7f3d 6484 9cbc 69d4 ae3c
00000310: e719 cb3c f109 7f3b 4fc8 4b3d b830 bc3c
00000320: 7918 b53c 82c5 b73c dcde 1f3d 73c7 ccbc
00000330: d04d c13c 51ed 0c3d 7f62 9d3c 1979 463d
00000340: a069 35bc e0ea 323b 290c e63c 3be6 e83c
00000350: 9b86 083c 1957 bc3c b3e2 d83c b977 5abc
00000360: d6e5 fc3c f6dd 2b3d 2396 cbbc 8459 ff3c
00000370: 17bb 243d 86d1 adbb 2cd8 9d3c 152a 6a3d
00000380: eb24 d6bc a74e 9b3c 16b4 833c e809 f13c
00000390: 6324 093d d8f7 2a3d d93f 1f3d b21d 0b3b
000003a0: 90ec bb3c 82c5 0fbd 3dfb a33c cba6 493c
000003b0: 7d83 0fbc 1c0d b73c 7596 253c 19d8 6139
000003c0: 302f 0dbc 4ca1 6fbd 14be 8aba 5bee f6bb
000003d0: 3e50 78bc e560 863c b4f8 14bd fef9 573c
000003e0: 5943 92bc a863 f1b9 80fb 40bb 9d35 3f3d
000003f0: 2899 c1b9 c5b4 32bd 5b42 9f3c b419 e3bc
-0.010353778 -0.08239071 0.035606645 -0.0012072957 -0.01897403 -0.022104625 -0.051573843 0.010776576
0.045341294 -0.01165918 -0.07522212 0.088350415 0.038827915 0.0046414235 -0.006224812 0.0018506786
-0.0032428987 0.034890294 -0.009456664 -0.03150126 -0.041247115 -0.027038485 -0.036950514 0.025717288
0.035345927 0.0097532505 0.04902582 -0.040115725 -0.045772284 0.00397462 -0.017841406 -0.014811682
-0.0030082078 -0.006538036 -0.013609138 0.018508062 -0.00050991104 0.002956747 -0.023488617 0.044391915
-0.024909506 -0.011315073 -0.005174661 -0.052366182 -0.0076365313 0.0057459776 -0.009055232 -0.018203378
0.02880436 -0.0365296 0.017565254 -0.066340566 -0.03054038 -0.014617507 -0.0036381264 -0.022746492
-0.009201211 0.03227593 0.00703125 -0.0062927906 -0.07906344 -0.040416375 -0.004089106 -0.014304819
-0.0044583953 0.0009802826 -0.05930003 -0.004078242 0.016289797 0.030100707 -0.016541991 0.011430723
-0.036796883 -0.0638018 0.02185211 -0.03286164 -0.011144364 0.038000513 -0.008552568 -0.026843958
-0.009408095 -0.068929575 -0.058424287 -0.035806105 -0.064096004 -0.033358406 -0.02095007 0.0021906353
0.019852065 0.024353297 -0.031700745 -0.038593236 -0.047477353 -0.033427887 -0.02702419 -0.022148715
0.010741814 0.08638706 0.034991108 -0.026408536 0.009733923 0.0123722935 0.014962297 0.02661477
0.011606102 -0.01633532 0.027399402 -0.017174408 0.015437612 0.06528197 0.018324163 0.010044437
0.011016018 -0.041964997 0.04671562 -0.02672239 0.03107583 -0.002100844 0.04989761 -0.046888437
0.04143555 0.016957479 0.03132599 0.008982397 0.04087935 -0.052134156 0.0024676549 0.029743642
-0.019826604 0.027972504 0.00824868 0.012189845 0.036040645 0.014022232 -0.009000245 -0.015724124
0.031525552 -0.0077479174 -0.029206181 0.044204026 0.0049914243 0.029867098 -0.003793454 -0.0033243645
-0.052368805 0.10028707 0.045051392 0.02880163 0.05233816 -0.015323605 0.028771035 0.0013513915
-0.018863661 0.030696623 -0.0053365203 -0.04580875 0.0033291979 0.06281948 0.011459583 0.0152625935
0.039531283 0.030754853 -0.053643607 0.015222232 -0.041227404 -0.0056614634 0.021309711 0.013959536
-0.019820096 0.010069012 -0.0021319105 0.05015358 -0.056969233 0.003694802 0.06210434 0.007695895
-0.0101170875 0.021150678 -0.020630425 0.0022901897 0.018051432 -0.0025653685 0.041927144 0.029664697
-0.0070620575 0.007877016 -0.033490207 0.025661036 0.043387868 0.055238638 -0.009212538 0.0034792856
-0.0039888467 0.062335238 -0.019106098 0.02134152 0.024792625 0.0038915838 0.049751576 0.02297245
0.022106396 0.022433046 0.039030895 -0.024997449 0.023596674 0.03440601 0.019212006 0.04845533
-0.011072546 0.002730064 0.02808197 0.028430095 0.008332874 0.02299075 0.026475286 -0.013334208
0.030871313 0.041959725 -0.024851864 0.031170614 0.040217485 -0.005304518 0.019268118 0.05716904
-0.02614065 0.018958403 0.016077083 0.029423669 0.033481967 0.04174027 0.03887925 0.0021227417
0.02293995 -0.035100468 0.02001726 0.012307833 -0.008759377 0.022345118 0.0101066725 0.00021538175
-0.008617207 -0.058503434 -0.0010585212 -0.0075357384 -0.01515585 0.016403625 -0.036369994 0.013182161
-0.01785438 -0.00046041352 -0.002944678 0.04668199 -0.0003692594 -0.043629427 0.01944082 -0.027722217

tcn.1.conv2.bias f4 [16]
00000000: e0c7 c3bd 8396 e1bc 9bde 003d 6441 32bd
00000010: c3c5 0d3e 2d60 cabd f986 d6bc 9408 973c
00000020: 0fe8 993d 9c61 c5bc 50d4 d63b 8f6d a33c
00000030: c407 ecbb 6dab 1b3d fa90 c13d 0a33 ecbd
-0.095596075 -0.02753759 0.031462293 -0.043519393 0.13844971 -0.09881625 -0.026187407 0.018436708
0.07514965 -0.024094395 0.0065560713 0.019949703 -0.007203074 0.03800528 0.0945148 -0.115331724

tcn.1.bn2.weight f4 [16]
00000000: 289b 823f 5166 6f3f 88bf 773f c956 803f
00000010: fa47 713f bf83 7e3f b8e7 753f 5920 823f
00000020: ec0d 7c3f 07e2 7d3f d1d0 823f c403 743f
00000030: b1f9 723f e4ad 723f 9189 803f 1f64 7a3f
1.02036 0.935155 0.9677663 1.0026485 0.9425045 0.9941978 0.960567 1.0166122
0.98458743 0.99173015 1.0219976 0.95318246 0.9491225 0.94796586 1.0041982 0.9780902

tcn.1.bn2.bias f4 [16]
00000000: 7f36 f33c cafa 8cbc 98f4 00bd 91b1 8b3c
00000010: 2258 59bd 9403 693c 5aa9 7dbd 6667 5e3b
00000020: 2acf d83b 1ab9 90bc 3be1 10bc 3584 50bd
00000030: 0a8b 9bbd aeb3 54bd fcf4 333d df74 9bba
0.029689072 -0.01720943 -0.031483263 0.017052444 -0.053062566 0.0142220445 -0.061929084 0.0033936142
0.0066164928 -0.017666388 -0.008842762 -0.050907332 -0.07594879 -0.05192917 0.043934807 -0.0011860392

tcn.1.bn2.running_mean f4 [16]
00000000: 77eb 3ebe 1aea 7bbe 2cf6 423e e2f4 c23d
00000010: 863a bb3e 10a5 71be cf45 293e 97c0 d63d
00000020: c23d 5d3c 255b 243d 1acb f03d 0de7 3d3e
00000030: 0ed9 4d3e 4019 bfbd 4f11 eb3d f5f2 d9be
-0.1864451 -0.24601021 0.1903922 0.09519364 0.36568087 -0.23598123 0.16530536 0.10485952
0.013503494 0.040125985 0.117574885 0.1854517 0.20102331 -0.09330988 0.11477911 -0.42568174

tcn.1.bn2.running_var f4 [16]
00000000: ee9b d03c bde2 9b3d 5c6f 4e3d f24c 5b3d
00000010: 2513 833d b7bd 813d 7c3a 443d 8046 473d
00000020: 7672 493d 0bda d33c 908c 453d 9a59 ce3d
00000030: 2549 eb3d 3871 123d a78d 543d a987 9d3d
0.025464978 0.07611606 0.05039917 0.053540178 0.06400136 0.06335013 0.047907338 0.04865122
0.049181424 0.025860807 0.048229754 0.10075684 0.114885606 0.035752505 0.051892903 0.07691891

tcn.1.net.0.weight f4 [16, 16, 3]
00000000: 8156 2fbd 48fe bb3b c5ec ae3c 6690 173d
00000010: d74f 823c b516 47bd 5b37 57bb 448c 4abd
00000020: 0d5a 6c3d 4649 4e3d c229 1e3b 02ff ee3c
00000030: 4d5c 853d c63f 1a3c 4180 de3c c561 853a
00000040: cfea c5bc a004 8abc 6375 413d ccc6 07bb
00000050: f2e5 87bc 1444 b63c 7e3d 3abd 6788 b9bb
00000060: 7694 9c3c 3812 103d c16c c0bc df7c 303d
00000070: f2b3 db3b ffa7 3a3d 3d5b 003b e9bb 873c
00000080: c4af 033c d285 fe3c 1a01 b03d 759f 8f3c
00000090: c2cb 073d c563 91bc dc8a 39bc 0288 a23c
000000a0: 8a13 e63c 93ac 3b3c 6557 743d 4738 0d3d
000000b0: 45f3 28bd 79ac a53c e831 cd3c 7660 b73c
000000c0: cc2c f53c 04c1 303b 3b08 013d 5040 72bd
000000d0: fac2 673c 8879 303a c159 a1bc 81dc baba
000000e0: 7d36 703d 8085 aebc 7d39 603c 53a0 69bd
000000f0: a755 17bd 59c1 1a3d 2272 083d c81c 213c
00000100: 2818 453d a9b3 1bbd 01fb ccbb d438 08bb
00000110: 0f71 3cbc 277d a8bc 409b f4bc 49c9 003d
00000120: ece4 2abd c1d8 bf3a 9d19 d93c c229 8bbd
00000130: e3e6 2abd c531 c53c 4853 d0bc c572 ebbc
00000140: 4520 f73c 30d9 30bd 0f06 4f3c 4edc 3fbd
00000150: facf 37bd 137b ba3c 5c66 3abc a597 b7bc
00000160: ebef 7cbc c33e f13c be12 adbc 260e 023d
00000170: 4351 fd3b 4063 89bd 2134 373c 3939 90bc
00000180: ba49 4f3c acad b23c 5819 903c 978d 9cbc
00000190: f2c2 9a3c 1cee 093c 0a7a 30bc 4f4b c93c
000001a0: 7a25 41bc 9dcf 443c 7d83 7c3d ea04 173d
000001b0: aec7 bdbb 6b9b 123d e74c c33c 8cd9 ca3c
000001c0: 7a9e 15bb d26a 723b 82ed 6f3d caf5 533c
000001d0: 5727 1fba 86fd d93c 1aaf 1e3d 9ee2 a2bd
000001e0: 62a5 4abc 2cfe c33b 1b38 8ebb f54c a8bc
000001f0: a0f4 d9bc 10aa a6bb e57e 3ebd ea68 2a3c
00000200: c408 47bc cec6 313c c8f8 b63c 6bac 893d
00000210: b61d 73bc 7819 453b 0627 10bd 6654 a23c
00000220: 4c83 88bb 6a6e 71bc 298f e53c 33b2 ee3c
00000230: 3e72 043d 35c5 0a3c 8c34 a53b 7b95 d53c
00000240: 760d f4bc 7339 96bc fc7c 82bd d9ff 64bc
00000250: 0553 a43c 99b6 61bd 9cd1 7cbd b021 25bd
00000260: c5eb 953c f9e8 93bd 0e20 08bd 0a56 0cbd
00000270: a5cd 89bc 7d67 81bc 86e9 97bc 7574 96bc
00000280: a31e 3e3b 11f4 9e3c ae7b e1bc 91dd 813b
00000290: ad5e 6d3c 4e0a e1bc bc47 923c 46be 84bd
000002a0: ea49 13bd 17a8 13bc 75e0 fbbb ee5d 9dbc
000002b0: 5886 fbbc 0288 65bd 8c7a dabb 2e17 423b
000002c0: 9d47 ca3c 0b1f 1fbd d24f babc 1ffa 1fbd
000002d0: 5296 26bd 8f2e 853c 85f1 093d 977a 0b3c
000002e0: 9e3c 91bc a204 64bd 2fef c0bc 1e54 49bc
000002f0: 2ce7 0abd 3569 26bd 42a7 b7bc 835e 12bc
00000300: ff4b b23c ed21 7cbc 35fb f5bc cdfa 153d
00000310: e6e5 34bd 9805 10bd 9a07 bbbc 6673 a43c
00000320: cfad 0a3d 2dcb dd3b 7596 0c3d 76d1 23bd
00000330: ef5e ad3c 76e4 90bc 277a ab3b 9eba 2c3d
00000340: c7cd 0a3d 9265 813c aa1e 1dbc 8f0a de3c
00000350: 75b4 88bd 03ea c7bc f911 e4bc fc9a 76bd
00000360: ef66 6dbc 61da 0e3b 0030 e734 ac7c b9bc
00000370: 4a55 783c 33c5 05bd 715f 083d d8a8 e43c
00000380: 302a 3d3d 9017 0b3d 8cd1 383d 0db2 8dbb
00000390: 78ac d2ba d93f dabb bcb5 70bd f3f5 bd3d
000003a0: 326d 5a3b c428 f5bc b092 2a3d 116f 843b
000003b0: 23d3 2fbd e08c 903c a8a9 0bbc b906 f9bc
000003c0: 26c0 acbc 6d0c 753c 948c 42bd d788 70bc
000003d0: 13da b0bc 0af2 58bb 08e4 11ba 4ca4 41bc
000003e0: 44da ea3b 21fa 2f3d b95d 833b c500 883d
000003f0: b230 2fbd e0d1 cf3c 12e7 9ebc 0e70 ccba
-0.042807106 0.0057371 0.021353135 0.037002943 0.015907211 -0.04860564 -0.003283939 -0.049450174
0.057703067 0.050362848 0.0024133776 0.029174332 0.065117456 0.009414619 0.027160766 0.0010176232
-0.024159817 -0.016847908 0.04723109 -0.0020717857 -0.016589139 0.022249259 -0.0454688 -0.0056620124
0.01911376 0.035173625 -0.023489358 0.043087836 0.0067048008 0.04557037 0.0019585632 0.016569095
0.008037511 0.03106967 0.0859396 0.01753209 0.033153303 -0.01774777 -0.011324611 0.019840244
0.028085489 0.011454719 0.05965366 0.0344775 -0.041247625 0.020223843 0.025048211 0.022384863
0.029928587 0.0026970515 0.03150199 -0.059143364 0.014145607 0.0006731977 -0.019696118 -0.0014256389
0.058645714 -0.021303892 0.013685581 -0.057037663 -0.03694692 0.037782047 0.03331197 0.009833522
0.04811874 -0.038013134 -0.006255508 -0.0020785825 -0.011501565 -0.02056749 -0.029859185 0.03144196
-0.041722223 0.0014636741 0.026501471 -0.06795074 -0.041724097 0.024071584 -0.025430337 -0.02874125
0.030166754 -0.043175876 0.012635722 -0.04684096 -0.044876076 0.022763764 -0.011376943 -0.022411177
-0.01543806 0.029448872 -0.021127101 0.031751774 0.0077306344 -0.067083836 0.011181862 -0.01760541
0.012651855 0.021811329 0.01759021 -0.019110484 0.018891785 0.008418586 -0.010771284 0.024572043
-0.01178872 0.0120123895 0.061648834 0.03686992 -0.005791626 0.03579275 0.02384038 0.024761938
-0.0022830055 0.003698994 0.058576114 0.012937019 -0.0006071231 0.026610147 0.03874121 -0.0795338
-0.012368532 0.0059812274 -0.0043401844 -0.020544508 -0.026605904 -0.005086191 -0.046507735 0.01040099
-0.012148086 0.010850621 0.022335425 0.06722339 -0.014838627 0.0030074995 -0.035193466 0.019815635
-0.0041660424 -0.014735797 0.028022366 0.029137706 0.032335512 0.008469869 0.0050416645 0.026072254
-0.029791575 -0.01833794 -0.06371495 -0.013977014 0.020059118 -0.05510578 -0.061723337 -0.04031533
0.0183009 -0.072221704 -0.033233695 -0.03426174 -0.016821692 -0.015796417 -0.01854397 -0.018366078
0.002900996 0.01940349 -0.027524795 0.0039631804 0.0144879045 -0.027470734 0.017856471 -0.06481604
-0.03595916 -0.009012244 -0.0076866695 -0.019209828 -0.030703709 -0.05603791 -0.0066674408 0.0029615867
0.024692351 -0.038847964 -0.02274314 -0.039056893 -0.0406707 0.016257552 0.033677597 0.008513114
-0.0177291 -0.05566848 -0.023551552 -0.0122881215 -0.03391187 -0.040627677 -0.022418622 -0.008933666
0.021764753 -0.015388948 -0.030027011 0.036616135 -0.04416456 -0.035161585 -0.022830773 0.020074558
0.033857163 0.006768605 0.034323175 -0.03999468 0.021163432 -0.017687064 0.0052330676 0.04217016
0.03388765 0.015795503 -0.00958983 0.027104644 -0.066750444 -0.024403578 -0.027840601 -0.0602064
-0.014489873 0.0021797644 4.3062028e-07 -0.022642456 0.015157053 -0.032658767 0.033294145 0.027912542
0.04618281 0.033958018 0.045121714 -0.004324204 -0.0016073128 -0.0066604433 -0.058767065 0.09275427
0.0033329246 -0.029926665 0.0416438 0.0040415605 -0.042925965 0.0176453 -0.008524336 -0.030398713
-0.021087717 0.014956576 -0.047497347 -0.014681063 -0.02158836 -0.003310325 -0.00055652903 -0.011818957
0.0071671326 0.04296315 0.0040089753 0.06640772 -0.04277105 0.02536863 -0.019397292 -0.001559736

tcn.1.net.0.bias f4 [16]
00000000: 50ce e7bd 4e8e cc3d e4c4 e73d b8dd 96ba
00000010: c1b9 6b3c b6ad ed3d fc4a 73bd f727 40bd
00000020: c4e7 81bd f978 9b3c 515e 413d 17c9 f23d
00000030: 9d10 d8bd d9c2 f83b 749d c5bd 8185 13be
-0.11318648 0.0998808 0.11316851 -0.0011510169 0.014387549 0.11605398 -0.059397683 -0.046913113
-0.06343034 0.018978583 0.047209088 0.11854761 -0.10550044 0.007591587 -0.096491724 -0.14406396
