python/chronos/test/bigdl/chronos/resources/tsppl_ckpt/s2s_tsppl_ckpt/best_model.ckpt (torch, 13961 bytes, 10 tensors)

lstm_encoder.weight_ih_l0 f4 [64, 2]
0	0xbe302cb3	-0.17204551
1	0x3dc934e6	0.09824543
2	0x3de4d058	0.11172551
3	0x3d3a75b7	0.045522418
4	0xbe229310	-0.15876412
5	0xbe4a5fb6	-0.19763073
6	0x3dd15189	0.1022063
7	0x3e69cd00	0.22832108
8	0xbe138ed8	-0.1440996
9	0xbe425a7f	-0.18979834
10	0x3e5ee128	0.21765578
11	0x3d1bc4f9	0.038029645
12	0x3d95d0b1	0.07315195
13	0xbd4a559e	-0.049398057
14	0x3c4e2246	0.012581414
15	0xbe2da985	-0.16959198
16	0x3e5a86b9	0.21340455
17	0xbdd8d699	-0.10587806
18	0x3de5db12	0.11223425
19	0xbddd72b7	-0.10812896
20	0xbd4ce6ae	-0.05002468
21	0xbe6ebab2	-0.23313406
22	0xbe2e2210	-0.17005181
23	0x3e0a80d3	0.13525705
24	0xbddfdbdd	-0.109306075
25	0xbe1e2f91	-0.15447833
26	0x3d8ae231	0.06781424
27	0x3dd9398f	0.106066816
28	0x3d0557e9	0.03255454
29	0xbe16300f	-0.1466677
30	0xbe0db426	-0.13838252
31	0x3ddcb8bd	0.107774235
32	0x3e5323c8	0.20619118
33	0xbe43f278	-0.19135463
34	0xbb12ec4e	-0.002241868
35	0x3cd3caf9	0.02585362
36	0xbccd6ee5	-0.025077293
37	0xbd679a8d	-0.056543875
38	0x3cd5bd37	0.026091201
39	0x3e3d1b33	0.18467407
40	0x3db67b5c	0.08910248
41	0xbd4072e6	-0.046984576
42	0x3e847742	0.25872236
43	0x3e0a8d65	0.135305
44	0x3e53ae23	0.20671897
45	0x3e737a53	0.23777132
46	0xbc4a00ee	-0.012329323
47	0xbe165bdf	-0.14683484
48	0x3e485749	0.19564547
49	0x3df4f756	0.11961238
50	0x3d8dc352	0.0692202
51	0x3e5b1cd9	0.21397723
52	0x3e9351b1	0.28773263
53	0xbe560c34	-0.20903093
54	0x3dc46b9f	0.095908396
55	0xbd82b25c	-0.063816756
56	0x3daaa968	0.08333093
57	0xbe2b1596	-0.16707453
58	0x3d37fe0d	0.044920016
59	0xbe585904	-0.21127707
60	0xbdf50429	-0.11963684
61	0x3e41e259	0.18934001
62	0xbe417356	-0.18891653
63	0x3d7b0bc3	0.061290514
64	0x3e4002b1	0.18751027
65	0x3e4051fa	0.18781272
66	0x3e275b10	0.16343331
67	0x3d908f72	0.0705861
68	0xbc261b86	-0.010138398
69	0x3c5839d9	0.013197386
70	0xbcdd00dd	-0.02697795
71	0x3e11bd11	0.1423228
72	0xbe443327	-0.19160138
73	0x3d0a682a	0.033790745
74	0x3db5d9fd	0.088794686
75	0xbe606609	-0.21913923
76	0x3e7a4002	0.2443848
77	0xbd19c0ee	-0.037537508
78	0xbda8adea	-0.082362965
79	0x3e89ae3e	0.2689075
80	0xbd7b57e1	-0.061363105
81	0x3d99b57f	0.07505321
82	0xbdc3eb59	-0.095663734
83	0xbe187216	-0.1488727
84	0xbde66789	-0.112502165
85	0xbcf1e0cf	-0.029526142
86	0xbe322eb3	-0.17400627
87	0x3e0f4a1c	0.13993114
88	0xbd974e3a	-0.073879674
89	0xbe2a98ec	-0.16659898
90	0xbe136168	-0.14392626
91	0xbe4a31e4	-0.19745594
92	0xbd4b6b41	-0.049662832
93	0x3de1a3e9	0.110175915
94	0x3c86f725	0.01647527
95	0xbe0c8986	-0.13724336
96	0xbd5324b2	-0.051548667
97	0xbe959ff2	-0.2922359
98	0x3c496a49	0.012293407
99	0x3e29a606	0.16567239
100	0x3d883f3d	0.06652687
101	0xbe6c33b8	-0.23066604
102	0x3e0eeae4	0.13956791
103	0xbe7ec201	-0.24878694
104	0x3d908bf5	0.07057945
105	0x3e579456	0.2105268
106	0xbe3deab1	-0.18546559
107	0xbe21bd95	-0.15794976
108	0xbdde25a5	-0.10847024
109	0xbd972410	-0.07379925
110	0xbdaf1381	-0.08548642
111	0xbd997f0a	-0.07494934
112	0xbd19d8d6	-0.037560306
113	0xbddc76c1	-0.10764838
114	0xbe05c241	-0.13062383
115	0x3dd05037	0.1017155
116	0xbdabf596	-0.08396451
117	0xbe6af3ab	-0.22944514
118	0xbe76104a	-0.24029651
119	0xbe5c5f48	-0.21520722
120	0x3e7577f2	0.23971537
121	0xbcf14047	-0.029449595
122	0x3e1efa7f	0.15525244
123	0x3d98a393	0.07453074
124	0xbddba06e	-0.10723959
125	0xbe65a2d6	-0.22425398
126	0xbd45b511	-0.04826838
127	0x3e653ade	0.22385737

lstm_encoder.weight_hh_l0 f4 [64, 16]
0	0x3e5e8696	0.21731028
1	0xbe4f3f52	-0.20238999
2	0xbd3252d3	-0.04353602
3	0xbdf190ce	-0.117951974
4	0x3d10cef2	0.03535361
5	0xbc3622aa	-0.011116663
6	0xbdf8e665	-0.12153319
7	0x3e014ba0	0.12626505
8	0x3e621fc1	0.22082426
9	0x3e2ee850	0.17080808
10	0xbcf3af16	-0.029746573
11	0x3e1fadd2	0.15593651
12	0x3d8f9907	0.070116095
13	0x3b9e2d56	0.004827182
14	0xbe822d33	-0.2542511
15	0xbbab1b5c	-0.0052217674
16	0xbe669d8c	-0.22521037
17	0x3e1ff8be	0.15622231
18	0xbe57e312	-0.21082714
19	0x3e39e480	0.18153572
20	0xbe369f64	-0.1783424
21	0xbe4ef3e7	-0.20210229
22	0xbceeecf6	-0.029165726
23	0xbca1fc56	-0.019773643
24	0x3e5094cf	0.20369266
25	0xbd19d15e	-0.037553184
26	0xbe686f2c	-0.22698659
27	0x3d910e61	0.07082821
28	0x3ce6e37d	0.028184647
29	0xbe8b48e0	-0.27204037
30	0x3e10539f	0.14094399
31	0xbe86c597	-0.26322624
32	0x3d32c357	0.04364332
33	0x3e69e63d	0.22841735
34	0x3c9a9e8b	0.018874427
35	0xbe77540f	-0.2415316
36	0x3e070e77	0.13189112
37	0xbe7902e5	-0.2431751
38	0x3e2be90d	0.1678812
39	0xbdb823e7	-0.08991223
40	0xbe54ed4e	-0.2079365
41	0xbdd2a11f	-0.10284638
42	0x3d26d301	0.040728573
43	0xbdc6d962	-0.09709431
44	0x3c72148c	0.014775407
45	0xbe5d5151	-0.21613051
46	0xbd4e304b	-0.050339025
47	0xbe27bd33	-0.16380768
48	0x3de7eea3	0.11324813
49	0x3d07f157	0.033189144
50	0xbc0ba4a6	-0.008523142
51	0xbce24df8	-0.027625069
52	0x3e4240d2	0.1897004
53	0xbe335704	-0.17513663
54	0x3d0fb5ce	0.03508549
55	0x3db41811	0.08793653
56	0x3df126dd	0.11774991
57	0x3e0fd3fc	0.1404571
58	0x3e215aef	0.15757345
59	0xbdbe635a	-0.092962936
60	0x3dd8d3a7	0.105872445
61	0x3e07e3ba	0.13270465
62	0xbe24edd0	-0.16106343
63	0xbe892005	-0.2678224
64	0xbe487552	-0.19576004
65	0xba19ae86	-0.0005862493
66	0x3c87b37a	0.016565073
67	0xbd7ed946	-0.062218927
68	0x3dc989d7	0.09840744
69	0xbe85a848	-0.2610495
70	0x3e57a2c8	0.2105819
71	0x3e3731bc	0.17890066
72	0x3e3d1a08	0.18466961
73	0xbc97c8ca	-0.01852836
74	0xbdff6572	-0.12470521
75	0xbdd663a2	-0.10468222
76	0xbe15288c	-0.14566249
77	0x3e004b24	0.12528664
78	0xbdeec944	-0.11659482
79	0xbe2388d9	-0.15970172
80	0x3d244e49	0.04011372
81	0x3e638aaf	0.22220872
82	0x3e663d2c	0.22484273
83	0xbe8c6f93	-0.27428874
84	0xbabdc8b8	-0.0014479375
85	0x3dc9d3d7	0.09854858
86	0x3d7e338b	0.062060874
87	0x3e92d50f	0.28678176
88	0xbe4e8fa2	-0.20171979
89	0xbe94047d	-0.28909674
90	0x3d7f29b2	0.062295623
91	0xbe06b127	-0.13153516
92	0xbe586ff6	-0.2113646
93	0xbdd37c53	-0.10326447
94	0xbe080618	-0.13283575
95	0x3d80284d	0.06257687
96	0x3e1063f6	0.14100632
97	0x3e493a4a	0.19651142
98	0x3e1abab5	0.15110286
99	0x3d5df510	0.054188788
100	0x3e5ade04	0.21373755
101	0xbe4cb9d1	-0.19992758
102	0x3e89a89d	0.26886454
103	0xbe195772	-0.14974764
104	0x3dcdba0e	0.10045253
105	0x3e087b25	0.13328226
106	0x3e4f25cc	0.20229262
107	0xbe8bd59c	-0.2731141
108	0xbe6a27b4	-0.22866708
109	0x3d2322ca	0.0398281
110	0xbd8729d0	-0.06599772
111	0xbe0d5f9b	-0.13806002
112	0x3ce91813	0.028453862
113	0x3e88ef70	0.26745176
114	0xbdec725c	-0.1154525
115	0x3c0f6944	0.008753125
116	0x3d8b33ac	0.06796965
117	0xbe111fa6	-0.14172229
118	0xbd929ec9	-0.07159192
119	0x3a50cfe7	0.000796555
120	0xbdbc55c8	-0.09196049
121	0x3e54c2b7	0.20777403
122	0x3e137967	0.1440178
123	0xbc53754c	-0.012906384
124	0x3dd2eaa4	0.102986604
125	0xbdd68550	-0.10474646
126	0x3e3d631f	0.18494843
127	0x3e4f4a2e	0.20243141
128	0xbe0f3608	-0.13985455
129	0xbd01ebb4	-0.031718925
130	0xbe319f77	-0.17345987
131	0xbcf48730	-0.029849619
132	0xbd83a559	-0.06428022
133	0xbe48c11c	-0.19604915
134	0xbdde8f1d	-0.108671404
135	0xbd3891b8	-0.045060843
136	0x3d0dd951	0.034631077
137	0x3d4cb523	0.049977433
138	0x3dbe8544	0.09302762
139	0x3e0a363a	0.13497248
140	0x3e1cafaf	0.15301393
141	0x3e33be1f	0.17552994
142	0x3e7a98f5	0.24472411
143	0x3e2b6081	0.16736032
144	0xbe1dad73	-0.15398197
145	0x3e0ae6a9	0.13564552
146	0x3e576ca0	0.21037531
147	0x3d460848	0.04834774
148	0xbceabfe4	-0.028655954
149	0xbe663faa	-0.22485223
150	0xbe2f8f0d	-0.17144413
151	0xbd1385e7	-0.03601637
152	0x3e7f05f7	0.24904619
153	0x3e2f780e	0.17135641
154	0xbd182b38	-0.03715059
155	0xbe22589a	-0.15854111
156	0x3d45fd75	0.04833742
157	0xbd3b7438	-0.04576513
158	0x3e4f93d8	0.20271242
159	0x3e11d313	0.14240675
160	0xbe256016	-0.16149935
161	0x3d9b881f	0.075943224
162	0x3e5c252a	0.21498552
163	0x3e6b1829	0.22958435
164	0x3e0ad17f	0.13556479
165	0x3d8e4ca0	0.06948209
166	0xbe50d6aa	-0.20394388
167	0x3e1d2cf2	0.15349177
168	0xbe482fe2	-0.19549516
169	0x3db91236	0.090366766
170	0xbc4f2e4e	-0.012645317
171	0xbdb22f94	-0.08700481
172	0xbe4edbf3	-0.20201091
173	0x3e2db63b	0.16964047
174	0x3e016426	0.1263586
175	0x3d8ca9b2	0.06868304
176	0x3d585a80	0.052820683
177	0xbe1a08cd	-0.1504242
178	0x3d7fc4b7	0.06244346
179	0x3d046676	0.032324277
180	0x3d6f201f	0.058380242
181	0xbcbd8099	-0.02313261
182	0x3dba8dd0	0.0910908
183	0xbe06363d	-0.13106628
184	0x3e38e573	0.18056278
185	0xbe238cfb	-0.15971749
186	0xbd8dd81b	-0.069259845
187	0x3e5fe11a	0.21863213
188	0xbc37fe46	-0.011230057
189	0x3e750d50	0.2393086
190	0x3e2562c9	0.16150965
191	0xbe58db38	-0.21177375
192	0xbe4b1bc3	-0.19834809
193	0x3d5b082a	0.053474583
194	0x3e7dc253	0.2478116
195	0x3e74b8ca	0.23898616
196	0x3d9d7bfd	0.076896645
197	0xbcb1913e	-0.021675702
198	0xbd852d97	-0.06502836
199	0x3ce35f8e	0.027755525
200	0x3c1cca2f	0.009569689
201	0x3e04c4ed	0.12965746
202	0x3e42c52f	0.19020532
203	0x3a6bec7d	0.0008999778
204	0x3d932872	0.07185449
205	0xbe62be3d	-0.22142883
206	0x3b96cc31	0.004601978
207	0x3dd09837	0.10185283
208	0xbcbdba69	-0.023160176
209	0x3cb44599	0.022005843
210	0x3e26e21a	0.16297188
211	0xbdabc273	-0.083866976
212	0x3c29e48c	0.010369431
213	0xbe580dee	-0.21099064
214	0xbda607f3	-0.08106985
215	0xbdb97007	-0.09054571
216	0xbd04ba98	-0.032404512
217	0x3e137e53	0.14403658
218	0x3e2a5bf4	0.1663664
219	0x3e787c3e	0.24266145
220	0x3d2c7088	0.042099506
221	0xbe13d0d8	-0.14435136
222	0xbce7b1ef	-0.028283088
223	0x3d4a21ef	0.049348768
224	0x3c06ac83	0.008219841
225	0xbe7a8ed2	-0.24468544
226	0x3dfac469	0.122444935
227	0x3d51dd7a	0.051236607
228	0xbd4d4b7f	-0.050120827
229	0xbd881d9a	-0.06646271
230	0x3e01c1df	0.12671612
231	0xbe20504b	-0.1565563
232	0xbcb51864	-0.022106357
233	0x3e3659e2	0.17807725
234	0x3e46ff18	0.19433248
235	0xbe317aab	-0.1733195
236	0x3e1edbc1	0.15513517
237	0x3da793ab	0.08182462
238	0x3e329b22	0.17441991
239	0x3e4e2b57	0.2013372
240	0xbda84194	-0.08215633
241	0xbc8549f5	-0.016270617
242	0xbcfb4fe6	-0.030677747
243	0xbe0ee594	-0.13954765
244	0xbe620be3	-0.22074847
245	0xbcf6a9a8	-0.030110195
246	0x3c2ace0c	0.010425102
247	0x3c45a23d	0.012062606
248	0xbe859831	-0.26092675
249	0xbe7cf698	-0.24703443
250	0xbdee1d7f	-0.1162672
251	0xbd911d32	-0.07085647
252	0xbe88e8ef	-0.26740214
253	0xbe1ed7a0	-0.15511942
254	0x3e7d544d	0.2473919
255	0xbdfca29c	-0.12335703

lstm_encoder.bias_ih_l0 f4 [64]
0	0x3de6a180	0.112612724
1	0xbdd50954	-0.1040217
2	0xbe4bcb55	-0.19901784
3	0xbc6207d6	-0.013795814
4	0x3e7b3725	0.24532755
5	0xbe1d9767	-0.15389787
6	0x3e52a29a	0.2056984
7	0xbdc4e114	-0.09613243
8	0x3dbc726c	0.09201512
9	0x3e46a0a2	0.19397214
10	0x3c8a503b	0.01688396
11	0xbe719e31	-0.23595501
12	0xbe795e2e	-0.24352333
13	0xbdb5780f	-0.0886079
14	0xbd38bec3	-0.0451038
15	0x3dd8112c	0.1055015
16	0xbe027a62	-0.12741998
17	0xbe283acb	-0.16428678
18	0x3e5dbd9e	0.21654364
19	0x3df6401b	0.12023946
20	0x3e443b64	0.1916328
21	0xbe83732d	-0.2567381
22	0x3d671bb3	0.0564229
23	0x3d8aef9d	0.06783984
24	0xbe38eae0	-0.18058348
25	0x3d8ca5d7	0.06867569
26	0x3d3b204f	0.04568511
27	0xbd88168b	-0.06644925
28	0x3e746b57	0.23869072
29	0xbdd72703	-0.10505488
30	0xbe3c5673	-0.18392353
31	0x3ccb6de1	0.024832668
32	0xbda539fc	-0.080677
33	0x3e60f6e4	0.21969181
34	0xbe12affb	-0.14324944
35	0xbda9b9f8	-0.08287424
36	0xbd997381	-0.07492734
37	0x3ce7c082	0.028290037
38	0xbdfa39ae	-0.12218033
39	0xbdce59e6	-0.100757405
40	0x3d927fa9	0.071532555
41	0x3de45092	0.1114818
42	0x3d942f28	0.07235557
43	0xbe676dd8	-0.22600496
44	0xbdabf4cf	-0.08396303
45	0xbdffc202	-0.12488176
46	0xbe033847	-0.12814437
47	0xbe3978b7	-0.18112455
48	0x3e1b004c	0.15136832
49	0xbdbcbf1d	-0.092161395
50	0x3e0b2023	0.13586478
51	0xbd3f4ee9	-0.046706114
52	0xbd94fb3b	-0.07274481
53	0x3da8096b	0.08204921
54	0x3ca1610a	0.019699592
55	0xbe4f1215	-0.20221741
56	0x3e1c6153	0.15271501
57	0x3c09b2d2	0.0084044505
58	0x3dc049fb	0.09389111
59	0x3dadde37	0.0848965
60	0x3e3ba854	0.18325931
61	0xbe485dc7	-0.19567023
62	0xbde02bef	-0.1094588
63	0x3e3bb037	0.1832894

lstm_encoder.bias_hh_l0 f4 [64]
0	0xb947ecac	-0.00019066286
1	0xbe2c7327	-0.16840802
2	0xbe12e0f2	-0.14343622
3	0x3db0321a	0.08603306
4	0x3dceac79	0.1009149
5	0x3d030955	0.03199132
6	0xbe706ef9	-0.23479833
7	0x3e373121	0.17889835
8	0x3d59a698	0.05313739
9	0xbe0d23ed	-0.13783236
10	0x3e6bb77a	0.2301921
11	0x3df6b9d1	0.120471604
12	0x3e780530	0.24220729
13	0x3de4f84a	0.1118017
14	0xbe808682	-0.2510262
15	0x3e1e20eb	0.15442245
16	0xbe474daf	-0.19463228
17	0xbce2bcbf	-0.027677892
18	0x3e1f8ff1	0.15582253
19	0x3affd9d3	0.0019519873
20	0x3d2a0b31	0.04151458
21	0xbe66358a	-0.22481361
22	0xbe1a15e4	-0.15047413
23	0x3e733a7d	0.2375278
24	0x3daf01ba	0.08545251
25	0x3e5a3b69	0.21311726
26	0x3e5c3096	0.21502909
27	0x3db8c783	0.09022429
28	0x3df6b76b	0.12046703
29	0xbe96d096	-0.29456013
30	0xbd641929	-0.055688057
31	0xbd0e4420	-0.034732938
32	0xbd3e509d	-0.046463598
33	0x3e15506c	0.1458146
34	0x3ae98611	0.0017816444
35	0x3d22a344	0.039706483
36	0xbe6710f8	-0.22565067
37	0xbe5fe0eb	-0.21863143
38	0xbd26b6d2	-0.040701695
39	0xbe5daa62	-0.21647027
40	0x3dbda8d6	0.092607185
41	0xbb4f01fc	-0.0031586876
42	0xbe8093d0	-0.25112772
43	0x3e658f6a	0.2241799
44	0x3e1ebad3	0.15500955
45	0x3ce8d1ba	0.028420318
46	0xbd8ed8d9	-0.06974954
47	0x3e4c26f7	0.19936739
48	0xbdc3a76a	-0.09553416
49	0x3d9e4dbb	0.0772967
50	0x3d936cda	0.07198496
51	0x3e80e1c4	0.25172246
52	0xbe2a79e1	-0.16648056
53	0xbe0d71c7	-0.13812934
54	0x3e87607b	0.26440796
55	0x3bb92675	0.0056503364
56	0xbd8fbd64	-0.07018545
57	0x3afb0089	0.001914994
58	0xbe92b941	-0.28656963
59	0xbe7c0728	-0.24612105
60	0xbe597000	-0.21234131
61	0xbd0ea978	-0.034829587
62	0x3cb22865	0.021747777
63	0x3da8270b	0.08210572

lstm_decoder.weight_ih_l0 f4 [64, 2]
0	0xbe71a7a5	-0.23599108
1	0x3dc1a73a	0.09455724
2	0x3cb94d54	0.02261988
3	0x3e4b746e	0.19868633
4	0x3e532563	0.2061973
5	0xbdc82aca	-0.09773786
6	0xbdf3d1af	-0.11905228
7	0xbdcd7c2f	-0.10033452
8	0xbe4528c2	-0.19253829
9	0xbde4948e	-0.11161147
10	0x3d9670db	0.07345744
11	0x3e786485	0.24257095
12	0xbe2e46a4	-0.17019135
13	0xbe611bb0	-0.21983218
14	0xbe41efd2	-0.1893914
15	0x3defdeb7	0.11712401
16	0x3ddb803e	0.1071782
17	0x3db420c1	0.0879531
18	0xbd55048a	-0.052006282
19	0xbe7d28dc	-0.24722618
20	0xbe56e414	-0.20985442
21	0x3e4b90a0	0.19879389
22	0x3e44af5c	0.1920752
23	0xbc49e4a4	-0.012322579
24	0xbc28f42a	-0.0103121195
25	0xbd865034	-0.06558266
26	0x3e5fd0e5	0.2185703
27	0x3e398ed9	0.18120898
28	0x3e6729fb	0.22574608
29	0xbe42bc6b	-0.19017188
30	0xbe85fbb6	-0.26168603
31	0x3df5fa33	0.12010612
32	0x3e4a5742	0.19759849
33	0x3d6f3dc3	0.05840851
34	0x3ad40a8c	0.001617746
35	0xbe732366	-0.23743972
36	0xbc834feb	-0.016029319
37	0xbe6f4553	-0.23366289
38	0x3d46d362	0.048541434
39	0xbdeffc51	-0.117180474
40	0x3e75c0ea	0.23999372
41	0xbd816f6b	-0.063200794
42	0x3dccab25	0.09993581
43	0xbe1b08b2	-0.15140036
44	0xbe4fe88e	-0.20303556
45	0xbdcdc130	-0.10046613
46	0x3dca3e7d	0.098752
47	0x3e318b9b	0.17338412
48	0xbe06531f	-0.13117646
49	0xbe68c4db	-0.22731344
50	0xbcf926a8	-0.03041394
51	0xbd49e4b7	-0.049290385
52	0xbe555c58	-0.20836008
53	0xbe675982	-0.22592738
54	0xbe81efe9	-0.2537835
55	0xbe499fe3	-0.19689898
56	0x3e755954	0.23959857
57	0x3debfee6	0.115232274
58	0x3e1192fb	0.14216225
59	0xbda2e6bc	-0.07954165
60	0x3dc26f2e	0.09493862
61	0x3e31d12a	0.17364946
62	0xbe66162c	-0.22469395
63	0x3d5978d5	0.05309375
64	0x3d20f1a4	0.039292946
65	0xbe4cf428	-0.20015013
66	0x3df754c1	0.120767124
67	0x3e700eb3	0.23443107
68	0x3ca4fb1b	0.020139268
69	0xbe080404	-0.13282782
70	0x3d7e453a	0.06207774
71	0xbcbeaf24	-0.023276873
72	0x3d55e842	0.05222345
73	0x3d625cac	0.05526416
74	0xbe0fbece	-0.1403763
75	0x3d911814	0.07084671
76	0x3e1e57d3	0.1546319
77	0x3d9eca46	0.07753424
78	0x3e19e175	0.15027411
79	0xbd93b60c	-0.07212457
80	0x3e5342b2	0.20630911
81	0xbd5c9153	-0.05384953
82	0x3e36bf20	0.17846346
83	0xbdf4dc61	-0.119560964
84	0xbe6be7af	-0.23037599
85	0x3d19a59a	0.037511446
86	0x3df39a07	0.11894613
87	0x3b9dbadb	0.0048135347
88	0x3e68b45f	0.22725056
89	0x3df5e56c	0.120066494
90	0x3e89e9ac	0.2693609
91	0xbd7eec9c	-0.062237367
92	0xbe12ceab	-0.1433665
93	0x3de60266	0.11230926
94	0x3ddc45cc	0.107555
95	0x3e56d8dd	0.20981164
96	0x3e0d1502	0.13777545
97	0x3e3584c9	0.17726435
98	0x3e61c9a2	0.22049573
99	0xbe840e51	-0.25792173
100	0x3b067279	0.0020515008
101	0xbdc145ce	-0.09437142
102	0x3bf85484	0.0075784344
103	0x3c5251f6	0.012836924
104	0xbde11d80	-0.10991955
105	0x3e18cf44	0.14922816
106	0x3e0d814d	0.13818856
107	0xbbf665db	-0.0075194663
108	0xbdafbe31	-0.08581198
109	0xbbf61f39	-0.0075110462
110	0xbd1114f1	-0.035420362
111	0xbd1aa649	-0.037756238
112	0x3dfd55ee	0.123699054
113	0xbdf5a582	-0.11994459
114	0xbe67fee0	-0.22655821
115	0xbd93a3c3	-0.072089694
116	0x3e2047f4	0.15652448
117	0x3e6c24c8	0.23060906
118	0x3e3bbd34	0.18333894
119	0xbcd15af4	-0.025556065
120	0xbdf629a9	-0.12019665
121	0xbe48c0ad	-0.1960475
122	0x3e575e80	0.21032143
123	0x3e486dbe	0.19573113
124	0x3d1d5658	0.038412422
125	0x3dbf3b1a	0.093374446
126	0xbe409c72	-0.18809679
127	0xbe3dc9a6	-0.18533954

lstm_decoder.weight_hh_l0 f4 [64, 16]
0	0xbdbd7755	-0.092512764
1	0xbdd587df	-0.10426306
2	0x3e7f3b02	0.24924853
3	0x3bb361db	0.0054743118
4	0x3cb03c48	0.02151312
5	0xbe5b7f92	-0.21435383
6	0x3db06804	0.086135894
7	0x3e37b62c	0.17940587
8	0xbda0f878	-0.07859892
9	0x3dc60ee2	0.096708074
10	0x3e0d314e	0.1378834
11	0xbdc3d18a	-0.09561451
12	0xbe1081c5	-0.14112003
13	0xbe13587d	-0.14389224
14	0xbe20fe46	-0.15721998
15	0x3e431800	0.19052124
16	0xbe1b196f	-0.15146421
17	0xbe3d3609	-0.18477644
18	0xbe4a97d1	-0.19784476
19	0xbb9efbc1	-0.0048517887
20	0x3e57cacc	0.21073455
21	0xbe544184	-0.20728117
22	0x3d89976a	0.06718333
23	0x3d539b05	0.05166151
24	0x3dfa1487	0.122109465
25	0xbbef2b05	-0.0072988295
26	0xbd7b60e3	-0.061371695
27	0xbd32a86a	-0.043617643
28	0xbe34e823	-0.17666678
29	0xbe6ee994	-0.2333129
30	0xbe54fa1b	-0.20798533
31	0xbc15f0f0	-0.009151682
32	0x3b120806	0.0022282614
33	0xbe07db7f	-0.13267325
34	0xbe3a60bd	-0.18200965
35	0x3da56a6c	0.08076939
36	0x3e96034c	0.2929939
37	0x3d888092	0.06665148
38	0x3dad09d2	0.08449139
39	0x3cbe78ed	0.023251021
40	0xbdd9378a	-0.10606296
41	0xbdb4cecd	-0.088285066
42	0xbe3f2eb1	-0.18670155
43	0xbe6b32ef	-0.22968648
44	0xbe7fff25	-0.24999674
45	0x3da26e53	0.07931199
46	0x3e133814	0.14376861
47	0x3d44fe1d	0.048093904
48	0x3e503119	0.2033123
49	0x3e4d3d3e	0.20042893
50	0xbe0679a1	-0.13132335
51	0x3e84093b	0.25788292
52	0xbe55b234	-0.2086876
53	0xbd904090	-0.07043564
54	0x3e7f4705	0.24929436
55	0xbd9fed10	-0.07808888
56	0x3d93074e	0.07179128
57	0xbe5b373d	-0.2140779
58	0x3d9c2c9e	0.076256976
59	0x3e6a8966	0.22903976
60	0x3caba3f3	0.0209522
61	0x3e2ab526	0.16670665
62	0x3d7a585a	0.061119415
63	0x3e4145d5	0.18874295
64	0xbdf456ce	-0.11930619
65	0x3d8eb139	0.06967396
66	0x3cf1328a	0.029443044
67	0x3c8d03e2	0.017213766
68	0x3dc7c0ba	0.097535565
69	0xbdfc3842	-0.12315418
70	0xbe815e21	-0.25267127
71	0x3ded644a	0.11591394
72	0x3e30410d	0.17212315
73	0xbd641623	-0.055685174
74	0x3d69dedb	0.057097297
75	0x3df26848	0.11836296
76	0xbde7c6dc	-0.11317226
77	0xbe33e087	-0.17566119
78	0x3d3ce3da	0.046115734
79	0xbe145d6c	-0.14488763
80	0x3dc8a80e	0.09797679
81	0xbe575a77	-0.21030603
82	0x3ce39108	0.027779117
83	0xbd01cd0d	-0.031689692
84	0xbe25a0ab	-0.16174571
85	0xbe3f0248	-0.18653214
86	0xbe48fc65	-0.19627531
87	0x3da3e136	0.0800194
88	0xbd9a42a0	-0.07532239
89	0x3e64f36e	0.22358486
90	0x3e603f7b	0.21899216
91	0x3d0ca147	0.034333494
92	0x3e849e65	0.25902095
93	0xbbcb8e58	-0.006212037
94	0xbe861ebd	-0.26195326
95	0x3d4f3f7f	0.050597664
96	0x3e810e5c	0.25206268
97	0xbe8ee2fd	-0.27907553
98	0x3e404566	0.18776473
99	0xbe51b12a	-0.20477739
100	0xbd3ed0c6	-0.04658582
101	0x3e5bc112	0.21460369
102	0x3d01a81e	0.03165447
103	0x3c449dc3	0.012000504
104	0x3db90c0d	0.09035502
105	0x3e3ff529	0.18745865
106	0x3e457552	0.19283035
107	0xbe55e401	-0.20887758
108	0x3d5685c6	0.05237367
109	0xbd1b753a	-0.037953593
110	0xbd6ae45e	-0.057346694
111	0xbe8ecd08	-0.278908
112	0x3d925644	0.0714536
113	0x3d632c65	0.05546226
114	0xbe32220d	-0.17395802
115	0xbdc4da97	-0.09612005
116	0x3cb18b7a	0.021672953
117	0xbd85b3bf	-0.065284245
118	0x3e5c95a6	0.21541461
119	0x3e62a2b1	0.22132374
120	0xbe84e478	-0.25955558
121	0xbe8b2811	-0.27179006
122	0xbd609bed	-0.054836202
123	0xbe09a703	-0.13442616
124	0x3e0c1543	0.13679986
125	0xbe2f0b9d	-0.17094274
126	0x3cc5733d	0.024102801
127	0x3e781f5c	0.24230713
128	0xbe53bd52	-0.20677689
129	0xbc9fd38b	-0.019510051
130	0x3e2296f1	0.15877892
131	0xbe1a590a	-0.15073028
132	0x3d8fb190	0.07016289
133	0x3e271d03	0.16319661
134	0x3c14c314	0.009079713
135	0xbe20bda1	-0.15697338
136	0x3e75437d	0.23951526
137	0x3e81bef3	0.25340995
138	0xbe449dcf	-0.19200824
139	0xbdf72f0c	-0.1206952
140	0xbe20cb60	-0.15702581
141	0x3d9912fd	0.07474325
142	0x3d7feb0c	0.062480018
143	0xbe8e4884	-0.277897
144	0x3dc6372d	0.09678493
145	0x3e8131ec	0.252334
146	0xbd8eb13b	-0.06967398
147	0xbe7d8324	-0.24757057
148	0x3e1b8329	0.15186752
149	0x3d1caa00	0.038248062
150	0xbe8c7bd3	-0.2743822
151	0xbd864902	-0.06556894
152	0xbe574fcf	-0.21026538
153	0xbc94870d	-0.018130803
154	0xbe4092ad	-0.18805952
155	0x3ced6a7b	0.028981438
156	0x3e7fedcf	0.2499306
157	0xbe513811	-0.20431544
158	0xbe7cd505	-0.24690636
159	0x3e40c4b4	0.18825036
160	0x3d828aa6	0.06374101
161	0x3daf1cc5	0.08550409
162	0xbe17a7ff	-0.14810179
163	0xbe2afb70	-0.16697478
164	0xbc8c9014	-0.017158546
165	0x3e1e7297	0.154734
166	0xbd28ca51	-0.04120857
167	0x3e63618e	0.22205183
168	0xbe753c02	-0.23948672
169	0xbe36cb5c	-0.17851013
170	0x3df508f8	0.11964601
171	0xbe774df2	-0.24150828
172	0xbc4ed68e	-0.012624396
173	0xbba4e700	-0.00503242
174	0x3e7ca3ed	0.24671908
175	0x3e08d69b	0.13363115
176	0x3d922ae8	0.0713709
177	0x3d9ea6f2	0.07746686
178	0xbe4efac7	-0.20212851
179	0x3d98059a	0.074229434
180	0xbe828eba	-0.25499517
181	0x3dbe30be	0.092866406
182	0xbe71998d	-0.23593731
183	0x3db099ac	0.086230606
184	0x3e0e62d6	0.1390489
185	0xbe6dcc91	-0.23222567
186	0xbdaad746	-0.083418414
187	0xbe27aaec	-0.16373795
188	0x3da39922	0.07988192
189	0xbda8e415	-0.08246628
190	0xbd102cbe	-0.03519892
191	0x3c1e5cde	0.009665696
192	0x3d2a8a1f	0.04163563
193	0x3e7d4244	0.2473231
194	0xbe42f986	-0.19040498
195	0x3de41490	0.111367345
196	0xbd055047	-0.03254726
197	0x3e4e8c8b	0.201708
198	0x3dcc2ba7	0.099692635
199	0xbe3ee122	-0.18640569
200	0xbccf3988	-0.025295988
201	0x3cdea641	0.027178885
202	0x3e33a753	0.17544298
203	0x3e196c40	0.149827
204	0xbe7e36da	-0.24825612
205	0xbd5a4561	-0.05328882
206	0xbdd10395	-0.10205761
207	0xbe170207	-0.14746867
208	0xbda5a2ad	-0.080876686
209	0x3e78ad9d	0.24284978
210	0xbd88a0fb	-0.066713296
211	0xbd3ed24f	-0.046587285
212	0x3e20dd1e	0.1570935
213	0xbd30281e	-0.04300701
214	0xbdf83a11	-0.1212045
215	0xbd931491	-0.07181657
216	0xbe335f85	-0.17516907
217	0x3de37bec	0.111076206
218	0xbe829f95	-0.25512376
219	0xbe516618	-0.20449102
220	0xbe281e47	-0.164178
221	0x3e3911e7	0.18073235
222	0xbe5f953e	-0.21834275
223	0xbda8fec7	-0.0825172
224	0x3e308be8	0.1724087
225	0xbe594d28	-0.21220839
226	0xbd90cd8a	-0.070704535
227	0xbe54b815	-0.20773347
228	0x3d668341	0.056277517
229	0xbd4fdcae	-0.050747566
230	0x3e4056d9	0.1878313
231	0x3e7fe96e	0.2499139
232	0xbe21e672	-0.15810564
233	0xbe7a4b07	-0.24442683
234	0x3e037452	0.12837341
235	0x3d025be5	0.03182592
236	0x3e336a88	0.17521107
237	0x3dcc2d48	0.09969574
238	0xbe2753b8	-0.1634053
239	0x3e4ece7c	0.20195955
240	0x3cb1cccc	0.0217041
241	0xbe6ee3fc	-0.23329157
242	0x3d24cead	0.040236164
243	0x3e2991ed	0.16559573
244	0x3df0ec54	0.11763826
245	0x3b890d77	0.0041825133
246	0x3e206476	0.15663323
247	0xbe16451a	-0.14674798
248	0xbe8123da	-0.25222665
249	0xbe1cef92	-0.15325764
250	0xbe2765fc	-0.16347498
251	0xbdc42c79	-0.09578795
252	0x3ce92c07	0.028463377
253	0x3e279edd	0.16369195
254	0x3da68035	0.08129922
255	0x3cb0529f	0.021523772

lstm_decoder.bias_ih_l0 f4 [64]
0	0xbe3b183e	-0.18270966
1	0xbb4af762	-0.0030970206
2	0xbe4fc365	-0.20289381
3	0x3dab838a	0.083746985
4	0x3e2f9c11	0.17149378
5	0x3e3d8969	0.18509449
6	0x3d655144	0.055985704
7	0xbb76e30f	-0.0037671959
8	0xbc63331b	-0.013867165
9	0x3e6ed03e	0.23321626
10	0x3df3e514	0.119089276
11	0xbdfe9de2	-0.124324575
12	0xbe3d8dd8	-0.1851114
13	0x3df6bff4	0.12048331
14	0x3e033c7e	0.12816045
15	0x3e086f58	0.13323724
16	0x3e205297	0.15656506
17	0xbdd58813	-0.10426345
18	0x3e322cff	0.17399977
19	0xbcb8a43e	-0.022539254
20	0xbe475553	-0.19466142
21	0x3dc4cba4	0.09609154
22	0x3d634edc	0.055495128
23	0xbd39344f	-0.0452159
24	0x3e5c9bee	0.21543857
25	0xbdaf6468	-0.08564073
26	0xbdd8e5e1	-0.10590721
27	0x3e05aff7	0.13055407
28	0xbba4a306	-0.0050243167
29	0x3e587687	0.21138965
30	0xbe69cd93	-0.22832327
31	0x3d915e91	0.07098115
32	0xbe4227eb	-0.1896054
33	0x3dc3459b	0.095347606
34	0x3df12fd6	0.11776702
35	0xbe35abf4	-0.17741376
36	0xbe187fae	-0.14892456
37	0x3e25ed03	0.16203694
38	0x3d66889a	0.056282617
39	0x3d917cf2	0.071039096
40	0x3e88d70e	0.26726574
41	0x3e841c65	0.25802913
42	0x3d8aa757	0.06770199
43	0x3dd7e4bb	0.10541674
44	0xbe04d2b7	-0.12971006
45	0x3e670a34	0.22562486
46	0x3c1d1a3e	0.009588776
47	0xbdda9c5d	-0.10674355
48	0x3e853159	0.26014212
49	0xbe195b9d	-0.14976354
50	0xbdb5730e	-0.088598356
51	0xbc10bd61	-0.008834214
52	0xbd0acb22	-0.03388513
53	0xbd476145	-0.048676748
54	0xbe928f5a	-0.28624994
55	0x3c58167b	0.0131889535
56	0x3cdd1a6b	0.026990136
57	0x3d0f564e	0.034994416
58	0x3de86efb	0.11349293
59	0xbd4c4130	-0.049866855
60	0x3ca9cd78	0.020727858
61	0xbe448ea3	-0.19195037
62	0xbe3957d6	-0.18099913
63	0xbde25b44	-0.11052564

lstm_decoder.bias_hh_l0 f4 [64]
0	0xbd03506c	-0.03205912
1	0xbe8258e1	-0.25458434
2	0xbe2b68dc	-0.1673922
3	0xbdab3385	-0.08359436
4	0x3c4f4be8	0.012652375
5	0x3c896c85	0.016775379
6	0xbd21b80d	-0.039482165
7	0x3d0c475e	0.03424775
8	0xbe3801c4	-0.17969424
9	0x3e73d34c	0.23811072
10	0xbdbf92d8	-0.0935418
11	0x3e61f2f8	0.22065341
12	0x3c4e92c1	0.012608231
13	0xbe374145	-0.17895992
14	0x3e3a4970	0.18192077
15	0xbdb76ce3	-0.08956315
16	0x3e0e327c	0.13886446
17	0xbe35f774	-0.17770177
18	0xbcb9853f	-0.022646545
19	0xbe84536b	-0.25844893
20	0x3e91442d	0.28372326
21	0xbe8f45b5	-0.2798287
22	0x3db0edbd	0.08639095
23	0x3e8e8d12	0.27842003
24	0xbc7f9d3b	-0.0156014515
25	0xbe4586fe	-0.19289777
26	0xbdaf2455	-0.08551852
27	0x3e44d8b7	0.19223295
28	0xbd95bee6	-0.073118016
29	0xbd9541b4	-0.072879225
30	0xbdbe1908	-0.09282118
31	0xbe0f217b	-0.13977616
32	0x3dc02c07	0.093833975
33	0xbe302798	-0.17202604
34	0xbe3ff442	-0.1874552
35	0xbc8f01f7	-0.017456992
36	0x3d119c95	0.03554972
37	0xbda9cf40	-0.08291483
38	0x3d9e106e	0.077179775
39	0x3dc87240	0.097874165
40	0x3d982638	0.07429165
41	0xbe11a86f	-0.14224409
42	0xbe579626	-0.21053371
43	0xbd672a78	-0.056436986
44	0x3e6a012f	0.22852014
45	0x3c7c051c	0.015382078
46	0x3d5fce97	0.05464038
47	0xbe231490	-0.15925813
48	0xbe15b08a	-0.14618126
49	0xbe781509	-0.24226774
50	0xbbf83869	-0.007575084
51	0xbd8a408d	-0.06750593
52	0xbd9d1e1c	-0.076717585
53	0xbd65178d	-0.055930663
54	0xbe7ab587	-0.2448331
55	0x3e39f984	0.18161589
56	0xbd425d8e	-0.047452502
57	0xbe2b9b8e	-0.16758558
58	0xbdf6cb26	-0.12050466
59	0xbdde6b0a	-0.1086026
60	0x3e133c3c	0.14378446
61	0x3dde7867	0.10862809
62	0x3d7dc49a	0.061955072
63	0xbdb6a19b	-0.089175425

fc.weight f4 [2, 16]
0	0x3dc63edd	0.09679959
1	0x3d869db9	0.06573052
2	0xbd2e7d6b	-0.042600077
3	0x3e840ab6	0.25789422
4	0x3ded41c1	0.11584807
5	0xbded6ec5	-0.11593393
6	0xbdaef1d8	-0.08542222
7	0x3e191c39	0.14952172
8	0x3dd97921	0.10618807
9	0xbe51b401	-0.20478822
10	0x3e22a76f	0.15884183
11	0x3d0fb5a0	0.03508532
12	0xbb02ddd2	-0.001996864
13	0x3e34b0c3	0.17645554
14	0xbd414a90	-0.04719025
15	0x3dc47b5f	0.09593844
16	0x3e2a2655	0.16616185
17	0x3d11164a	0.035421647
18	0x3d8c7ecd	0.06860123
19	0xbe42eb67	-0.19035111
20	0x3dfffe4c	0.12499675
21	0x3c7d9550	0.015477493
22	0xbd636eac	-0.055525467
23	0x3e4dbd50	0.20091748
24	0xbe2459dd	-0.16049905
25	0xbe74e938	-0.23917091
26	0x3e15aa0e	0.14615652
27	0x3c5df250	0.013546541
28	0xbdac91cd	-0.08426247
29	0xbe0bd364	-0.13654858
30	0xbd495e07	-0.049161937
31	0xbe1082c9	-0.1411239

fc.bias f4 [2]
0	0x3d8a5514	0.067545086
1	0x3e1f1cbd	0.15538307
