python/chronos/test/bigdl/chronos/resources/tsppl_ckpt/nbeats_tsppl_ckpt/best_model.ckpt (torch, 677193 bytes, 138 tensors)

stacks.0.0.fc1.weight f4 [64, 4]
00000000: 01fe d3bd 8c4b 9d3e 4c2c 1b3e 593c ddbe
00000010: 4cf7 91be 52f0 113e ac66 103e 7efe f5bd
00000020: 44ff d13e b58b 843e 8923 dc3e eac2 243e
00000030: 3746 89be dc24 b73d f095 283e e4b8 efbe
00000040: 1e2a 013e 0318 f43e fd3a 903e 8203 86bc
00000050: 1c8a 9d3e 8cb7 25be 2ef3 173e 4b40 d3bc
00000060: 2a7c c2be c8e9 9bbe 80d6 aa3d efcd 933e
00000070: 5a8d fe3e b5fe c43e 54fa af3e e1be 9e3e
00000080: a8bd 0d3d dc84 36be a332 7ebc 86aa 19be
00000090: 734a 04bd 6e75 cfbd 76af b33e 218c f0be
000000a0: e6b3 873e d498 233e 4df7 013d e69d a5be
000000b0: 6f9a 12be 2607 cebe 5473 223e b4bf b4be
000000c0: 60af aebe eb89 ba3d e7d8 86be d2d0 a73e
000000d0: 1756 06be 0137 c7be c2dd d33d 1948 c33e
000000e0: 7d7b df3e 0825 43bd f7b1 b83e 187c c03e
000000f0: dc44 403e 7191 83be 5cae 703e b1ea 9c3e
00000100: d57b da3d 78ff b83e feca d6be 20d5 cc3e
00000110: f127 34bd 2151 4c3e ff93 a0be de27 d93c
00000120: 5ae3 21be 85f1 11be 5095 1cbe 1e71 063d
00000130: f38e 8abe 70f6 bd3e d9d9 cabe 3cfc 8cbe
00000140: ad03 d53e fe96 5e3d a108 ecbe 9c4e 6fbe
00000150: cb9f bf3d e489 e1bb 15d0 a63e 8e7c 91be
00000160: d51d 1f3e 314b b03c 729d 39be 88d3 8b3e
00000170: e295 3fbd 4db8 a13e 1a5e f9bd 6078 b8be
00000180: 2d4b e93e 8cd4 89bd ffb4 ef3e b300 e73d
00000190: 45d2 0ebe e2d3 8bbe f898 dd3d ffb1 c7bb
000001a0: 6bac 343e 4257 fbbe 3059 febc 463e 433e
000001b0: 8258 e3be ef6b 7c3e d7f1 3fbe c584 83be
000001c0: c4a4 ecbe 0db3 563e ca92 caba b12e 89bd
000001d0: 01e0 903d 1eb8 a6be ad93 b1be b125 543e
000001e0: 3266 8ebd c29b 7abe 1383 7e3e f9e8 97be
000001f0: 61d3 16be c44f cbbd ca5b a2be 6102 c63e
00000200: 0329 033e 1022 01bf 3131 cbbe ece7 fcbc
00000210: 4e26 003f 3d5a 81be 9f8b eb3e 23fe cabc
00000220: ed4f c9bd 1036 b43e 7145 ec3e fa05 353d
00000230: 9397 a4be a6ad ebbc 6f8a dc3d e2bf 6a3e
00000240: c762 b5bd 5d7a adbe 7d7d b3bd 7b32 fdbe
00000250: bbc9 823c 976f 6f3e 2a76 dabe 9bfb 4b3e
00000260: 36e3 d8bd f54b ecbe 637a aebe ae94 30bc
00000270: aa0a d4bd b38f d8be 645f f23e b4db 7dbe
00000280: 1b6b 16be 907e 19be f77f 133e d3b6 f5bc
00000290: edba 903e 69ee b23e f8f6 2f3d 5183 6bbc
000002a0: df4a a13e aef2 013f ee5e da3d 19f8 17bd
000002b0: 57fc be3e c869 35be 4b25 bdbe b22d a6bd
000002c0: 7882 38be 6053 e0be 6a53 f8be b15c b53e
000002d0: 1e2f aebe 0aaf 5bbe a960 ef3d 24b8 ad3e
000002e0: b0a7 833e 93da c73e 2148 dfbe 90ec 933e
000002f0: f5bb cbbe 29be ad3e a8de c43e b62d 3c3e
00000300: 1ec0 983e bb9c 923e 561e b6be e694 e23e
00000310: 88c5 2cbe fae5 e6be a6de 4fbe 0aa0 d3be
00000320: 15d4 e3be b018 b73e 002e c2bc 6287 e6bd
00000330: e37d 9bbe 86f1 02be b252 f5be de99 11be
00000340: 8b38 d8be dcbd df3e 4762 f7be efc6 443e
00000350: c08d c13e 2e29 dd3e 3fe0 64be 481a 803d
00000360: c959 283e 3661 88be f75f dbbe 702d aabd
00000370: 2d25 85bd c477 103e f786 b13e e357 74be
00000380: 93d9 313e aa5f 96bc 384f 94be 2389 89bd
00000390: edef cd3e 763f 393d a814 a13e d639 7cbe
000003a0: 052c 67be fb1e be3e d33b 85bd a8c5 d63e
000003b0: afb7 1bbe 46a2 b93d 7468 a7bd bc93 d73d
000003c0: 3d23 8c3e e4ec 4b3e e85e e6be d29d d43e
000003d0: 52cd 7ebe cc41 e0be 384b aa3d ae92 57bd
000003e0: 3fe0 83be 8c22 bc3e 2275 b1be 951b 143e
000003f0: 8ed8 3e3e 943b 883e 0d66 1fbe 80b7 bc3e
-0.10351182 0.307217 0.15153617 -0.43210104 -0.28508985 0.14251831 0.14101666 -0.12011431
0.41015065 0.25887838 0.4299586 0.16089979 -0.26811382 0.08942577 0.16463447 -0.46820748
0.12613723 0.4767457 0.28170004 -0.016359095 0.30769432 -0.16183299 0.1483886 -0.025787493
-0.37985355 -0.30451798 0.08341694 0.28868052 0.49717218 0.38475576 0.34370673 0.31005004
0.0346047 -0.1782412 -0.015515002 -0.15006456 -0.032297563 -0.1012982 0.35094804 -0.4698191
0.2650444 0.15976268 0.031729985 -0.3234703 -0.14316724 -0.4023983 0.15864307 -0.35302508
-0.34118176 0.09108337 -0.26337358 0.32776505 -0.13118778 -0.38909152 0.10345031 0.38140944
0.43648902 -0.047642738 0.36073276 0.37594676 0.18776268 -0.256969 0.23504013 0.30647805
0.1066815 0.36132407 -0.41951746 0.4000635 -0.043983404 0.19952823 -0.31362912 0.026508268
-0.15809384 -0.14252289 -0.15291333 0.03282272 -0.27062187 0.3710208 -0.3961933 -0.2753619
0.41604367 0.054343216 -0.46100333 -0.23369831 0.0935665 -0.006882893 0.3258063 -0.2841534
0.15538724 0.021520229 -0.18126467 0.27309823 -0.0467738 0.31585923 -0.121761516 -0.3602934
0.45565167 -0.06729993 0.46817777 0.1127943 -0.13947399 -0.2731009 0.10820192 -0.006094217
0.17643897 -0.4909001 -0.031048387 0.19066724 -0.44403464 0.24650548 -0.18744598 -0.25687233
-0.46219456 0.2096674 -0.0015455124 -0.06698359 0.07073975 -0.32562345 -0.3468298 0.20717503
-0.06953086 -0.2447348 0.24854688 -0.29669932 -0.14729072 -0.099273235 -0.31710654 0.3867369
0.12808613 -0.504426 -0.39685968 -0.030872308 0.5005845 -0.2526416 0.4600496 -0.024779385
-0.09829698 0.35197496 0.4614673 0.044195153 -0.32146892 -0.028769325 0.107685916 0.2292476
-0.08856731 -0.33882418 -0.08764169 -0.49452576 0.015965333 0.23382412 -0.42668277 0.19920199
-0.10590212 -0.461517 -0.3407775 -0.0107776355 -0.103535965 -0.42297134 0.47338402 -0.24790841
-0.14689295 -0.14989686 0.14404283 -0.029994404 0.28267613 0.34947518 0.042960137 -0.01437457
0.31502435 0.50760925 0.10662638 -0.03710184 0.37301895 -0.17716134 -0.36942515 -0.081141844
-0.1801852 -0.4381361 -0.4850114 0.3542228 -0.34020323 -0.21453491 0.11688358 0.3392955
0.25713873 0.39033946 -0.43609717 0.2889142 -0.39791837 0.33934143 0.38451123 0.18376812
0.29834074 0.286352 -0.3557002 0.44254225 -0.16872227 -0.45097333 -0.20299777 -0.41333038
-0.44497743 0.35761023 -0.023703575 -0.11256291 -0.3036948 -0.12787446 -0.47914654 -0.14218852
-0.4223064 0.4369954 -0.48317167 0.19216512 0.3780346 0.4319548 -0.22351168 0.06255013
0.164405 -0.26636666 -0.42846653 -0.08309448 -0.06501231 0.14108187 0.34673283 -0.23861651
0.17368154 -0.018356163 -0.2896669 -0.0671561 0.4022211 0.045226537 0.31461072 -0.24631438
-0.22575386 0.3713301 -0.06505551 0.41947675 -0.15206788 0.09064154 -0.0817422 0.10526225
0.27370635 0.19914585 -0.44994283 0.41526657 -0.24883011 -0.438002 0.08315128 -0.05263012
-0.25757024 0.36745107 -0.34659678 0.14463647 0.18637297 0.26607955 -0.15566273 0.3685875

stacks.0.0.fc1.bias f4 [64]
00000000: 3cf5 71be 894a 283d c10b d53d 396d 4abe
00000010: 43dd f7be 2491 e5be b911 d4be 3fc7 9dbe
00000020: 338c 65be 582b 963e 9569 16bd 7b92 03be
00000030: a8f6 1cbe 0b98 e63e e97a 263e 86d4 eebe
00000040: 33c6 33be a9f7 ac3e d5c6 483e 1cbc a3be
00000050: 7c48 ba3e a33e 413e 6767 9a3e d54b 313d
00000060: e07c f2bd 4def a0bd a296 75bd 0654 ab3e
00000070: b915 123e d0b0 7a3e 10eb ccbe 13c2 c6be
00000080: 260d 3c3e 4d0c 253e f7e5 83be f5fc 273e
00000090: e7b7 d93d a1d7 993e 48f2 e53e 893a 903d
000000a0: b67d c93e 70d9 c1bd 9cd7 623e 9692 bd3e
000000b0: 60cc 9fbe 2d28 e9be 44f4 e2be 726c 303e
000000c0: 81d3 efbe 4770 d53e 2c15 edbe 7a25 153d
000000d0: 074e 093d 5260 cc3e 16f6 8bbe 6f96 75bb
000000e0: b106 c2bd a389 4c3e 7547 e4be aa2b c53e
000000f0: 83f5 073d f24c b23d 4670 abbe 3440 03bf
-0.23628706 0.041086707 0.104026325 -0.19768228 -0.48410997 -0.44837296 -0.4141977 -0.30816075
-0.22416763 0.29329944 -0.036721785 -0.12848847 -0.15328467 0.45037875 0.16257824 -0.46646518
-0.17556076 0.337827 0.19607098 -0.31979454 0.36383426 0.1887155 0.30157015 0.04328521
-0.11840224 -0.07858143 -0.059958108 0.33462542 0.14266099 0.24481511 -0.40023088 -0.38819942
0.1836439 0.16117974 -0.25761387 0.16405089 0.1063078 0.30047324 0.44911408 0.07042415
0.39353722 -0.09465301 0.22152561 0.370259 -0.31210613 -0.45538464 -0.44326985 0.17228869
-0.46841052 0.41687223 -0.46305215 0.036412694 0.03352168 0.39917237 -0.27336186 -0.0037473699
-0.094739325 0.19974379 -0.44585767 0.38509876 0.033193123 0.087060824 -0.33484095 -0.5126984

stacks.0.0.fc2.weight f4 [64, 64]
00000000: 225f e53d 5369 c6bd d0aa 833b 95de b7bd
00000010: 0e44 803d cf12 b2bc 08cb d43d 010d 093e
00000020: 3453 bbbd ddbe c3bb 0ded 18bd 9e29 34bc
00000030: ee1f a7bd 23ba dcbc 8300 86bd a4b1 063d
00000040: 3695 053d f43b d6bd db60 a4bd 00b0 0f3c
00000050: bfbe fb3d 789e 46bd fc7e 0c3c 8569 5dbd
00000060: c3e3 793d 3024 47bc b26d 753c 59ba d93c
00000070: 4484 883d b751 2fbd f864 78bd edde fe3d
00000080: cc40 1dbd 1813 95bd c4d5 39bc fc7b a73c
00000090: 400a 833c 5e27 6b3d 9b44 42bc 97ab 3dbd
000000a0: 40c9 d1bd e00e 50bd e08e f73d e323 973d
000000b0: af9d d8bd b8c8 a63c 6071 a33d b9a7 813d
000000c0: 7a70 98bc 3ef8 d9bd 4254 043d c1c2 4e3d
000000d0: ac2c a03d ad9f 1dbd a8d4 7abd 9a47 2aba
000000e0: 9678 63bc 2253 12bd a035 d3bd 51fa 3a3d
000000f0: f38d b23d a05a cebd 8e98 cebd a972 383d
00000100: 0e15 9ebb 72d8 a63d 3a76 72bd 945d 063c
00000110: b3ba bc3d 5c53 54bd 27bd eb3d b715 bcbd
00000120: 6f3c 94ba 0b64 a1bd 3928 a8bd 1041 9b3a
00000130: 06e1 d03d 7c3b d1bc ce96 8bba 7b11 71bd
00000140: 5179 01be 8349 c0bd 96aa 633d 7fb3 123c
00000150: 92a8 e1bd 7113 e7bd 7459 29bd 7052 be3d
00000160: 65cc b7bc 0a00 fcbd 50c2 a13d 8697 3b3d
00000170: 7d20 893d 7639 23bd c5d5 febd 5141 e23d
00000180: 1dfa f7bd 63e8 67bd 621a 61bd 82b5 b83b
00000190: 638f f1bc 51e3 be3d 4abd 3e3c 000b 89bd
000001a0: ce46 bb3c 9b9d d0bd 9fbf 76bc 1e27 01be
000001b0: 2869 a0bd 634e cabd bcec a33d 9b82 b93d
000001c0: 0c80 aebd ef27 743d 0f30 ddbd e9a8 98bd
000001d0: a00d eabd b14f 973d c4b3 cfbd ff66 8f3c
000001e0: 89d7 8cbd 6826 96bd d94b 973d 680d c2bd
000001f0: 299f 13be 33f7 de3d a5f8 ba3d 241c 1b3d
00000200: 04e9 cdbc 7071 353d 23e4 fd3d dabb 933d
00000210: a288 ad3d b8c7 2abd 716b 55bd 3b35 fa3d
00000220: bec3 513d c056 da3d 38f3 343d c86b e5bd
00000230: c012 8fbd 44a2 b23d 5c5b d5bd 0ec9 afbd
00000240: 5718 24bd 6f04 d0bc 3d52 133d fd40 aabd
00000250: a0cf 7f3d 0f2d 8ebd 3889 ea3d 8b18 dd3d
00000260: a8da 933d 4484 c33d a699 e73d bcb8 893c
00000270: 9304 103d 3efb 81bd a10c 97bd 4e4c 97bd
00000280: fcb4 83bc 0319 aa3d 2dcb ae3d 5af5 62bd
00000290: 49aa 5fbb 3338 e4bc 3931 86bc 7ba9 b63c
000002a0: 9fd2 043d caf9 d2bc fc18 baba 62aa 933d
000002b0: a885 df3d ecf2 0d3d 27c3 64bc 1211 9c3d
000002c0: e67b 53bd 2d9a 31bd b468 d43d 7b48 81bd
000002d0: ba25 383d bf38 1fbd 0cb9 a9bd a47a d3bb
000002e0: 45ca 24bd 27b6 e03d 6bf9 263d a40a 0fbd
000002f0: 6b6b b6bd 9e0b c83d 613f e1bb 8b7e ce3d
00000300: 0018 47b9 86c8 b93d 26c4 b93d d4ce c9bd
00000310: eeb5 af3d d8fd 17bd 9887 d8bd c014 cabd
00000320: a819 c73c d49e 763d e495 e6bd a08b b2bb
00000330: a838 c7bd e650 cabd a8ef 013d 901e 503d
00000340: ecd1 19bd 8ecf cebd d467 c63d d0f9 263c
00000350: 7cee 9cbd 6e9d c7bd d4a4 c13d e84f 35bd
00000360: d08e 973c c00e 6ebb 2069 e7bd a4ac ccbd
00000370: a82f 073d c8e4 483d e877 d0bc 8876 be3c
00000380: 7c4a 96bd 00c1 33ba 3811 f53d 7282 b0bd
00000390: a0b9 b13b 4c07 f0bd 887e 96bd 46a5 f8bd
000003a0: 2a72 d53d 8028 af3b 122d c5bd 9e3e d73d
000003b0: 4885 84bc 4c27 2c3d 24ba 1cbd 0ce7 5abd
000003c0: ba16 c43d f440 2a3d a294 e1bd 4adf bebd
000003d0: e0cc 42bd 1814 9a3c 88d8 7fbd 3c47 58bd
000003e0: ae0f c9bd 6239 bdbd e015 2fbd e8d5 3cbd
000003f0: 8c39 653d 083e 97bd c022 fbbc 7818 bbbc
0.11199786 -0.09688058 0.004018165 -0.08978001 0.062629804 -0.021737484 0.10390288 0.13383867
-0.09146729 -0.0059736804 -0.037335444 -0.01099625 -0.08160387 -0.026944226 -0.06543066 0.032884255
0.032613 -0.10460654 -0.08026286 0.008769989 0.12292241 -0.04849097 0.008575197 -0.05405571
0.061008226 -0.012154624 0.014979767 0.026578115 0.06665853 -0.04280254 -0.060643166 0.124448635
-0.038391873 -0.072790325 -0.01134247 0.020444863 0.015996099 0.05741059 -0.011857177 -0.04630622
-0.102434635 -0.050795436 0.12087798 0.07379892 -0.10576951 0.020359382 0.07980609 0.06330819
-0.01860832 -0.106430516 0.032306917 0.0504787 0.078210205 -0.038482357 -0.06123796 -0.0006495655
-0.01388373 -0.035723813 -0.103129625 0.045648877 0.08718481 -0.10075879 -0.10087691 0.045031223
-0.0048242873 0.081467524 -0.05919478 0.008201022 0.092152975 -0.05183731 0.11510687 -0.09183829
-0.0011309515 -0.0788041 -0.08210797 0.0011844952 0.1019917 -0.02554106 -0.0010649802 -0.05885456
-0.12643935 -0.09389021 0.055582605 0.008953928 -0.1101848 -0.11283005 -0.041345075 0.092930675
-0.02243633 -0.12304695 0.0789839 0.0457988 0.0669565 -0.03984972 -0.12443117 0.11047614
-0.12108252 -0.056618106 -0.0549568 0.005636872 -0.029487317 0.09320701 0.01164181 -0.06691551
0.02286091 -0.10186311 -0.0150603345 -0.12612578 -0.07832557 -0.09878232 0.08004138 0.09058114
-0.08520517 0.059608396 -0.10800182 -0.07454092 -0.1142838 0.07388247 -0.101417094 0.017505167
-0.068770476 -0.07331544 0.07387514 -0.09475213 -0.14416184 0.10886993 0.091294564 0.037868634
-0.025135525 0.044297636 0.12397029 0.07213564 0.08473326 -0.041694373 -0.052104417 0.12217184
0.051212065 0.106610775 0.044177264 -0.11202198 -0.06985998 0.08722356 -0.10417816 -0.0858327
-0.040062275 -0.02539274 0.0359671 -0.08313177 0.062453866 -0.06942188 0.11451954 0.10795697
0.0721944 0.09546712 0.11308603 0.016811721 0.035160612 -0.06346749 -0.07375456 -0.07387601
-0.016077511 0.08305552 0.085348465 -0.055409767 -0.0034128597 -0.02785883 -0.016380893 0.022297611
0.032427426 -0.025753874 -0.001419812 0.07210232 0.10914165 0.034655496 -0.013962544 0.076204434
-0.05163183 -0.043359924 0.10371533 -0.06312653 0.044957854 -0.038872477 -0.08287248 -0.006453829
-0.04023196 0.10972243 0.040765207 -0.034922257 -0.08907207 0.09767841 -0.0068740104 0.1008273
-0.0001898706 0.0907145 0.090706155 -0.098539025 0.08579622 -0.03710732 -0.105727375 -0.09867239
0.024304226 0.060210064 -0.11259058 -0.0054487735 -0.09727603 -0.098787114 0.031722695 0.050810397
-0.037553713 -0.10098182 0.096877724 0.010191396 -0.07662675 -0.09746824 0.094552666 -0.044265658
0.018500715 -0.003632471 -0.11299348 -0.09993866 0.033004433 0.049046308 -0.0254478 0.02324988
-0.073384255 -0.00068570673 0.11966175 -0.086186305 0.0054237396 -0.11720142 -0.07348353 -0.121408984
0.10422166 0.005345404 -0.09627737 0.1050999 -0.016176835 0.042029664 -0.038263455 -0.053443
0.09574647 0.04156585 -0.110146776 -0.09319933 -0.047558665 0.01880841 -0.06246236 -0.05280231
-0.09817444 -0.092394605 -0.04274547 -0.046102434 0.055963084 -0.073848784 -0.030656219 -0.022838816

stacks.0.0.fc2.bias f4 [64]
00000000: 5d83 d4bd a3a3 0abe b1c8 08be 44f6 64bd
00000010: e4e4 bdba 7378 a7bd c6ed 96bd a136 2fbc
00000020: 9674 df3d b494 97bd 492d 63bd 2df2 cc3d
00000030: f83f 15bd 2115 babd 89e4 a33d e48a 1d3d
00000040: 4dde 8abd 7762 d73d 92cd 923d 0d48 c8bd
00000050: 2aca 623c 196e af3d 0776 d8bc d9a3 493c
00000060: ed4b 043d f844 c2bd a041 743d 2e91 863d
00000070: 3404 1b3d b7d6 a63d d9bb a9bb 38ef b63d
00000080: 739d abbd 6cea 98ba 4fda 45bd 8654 4ebb
00000090: 7de1 dc3c e33b 8bbd 2c41 e03d 3117 87bb
000000a0: 6879 0b3c 85f0 8fbd c051 b83b c797 b5bd
000000b0: 2669 a7bd e758 f63d 091d e63b b034 4c3d
000000c0: 2671 c2bc a3be 1cbd e8ad 2f3d 007e 74bc
000000d0: 9e27 ed3d 4f4e 6fbd 93e4 4abd 5657 10be
000000e0: c7b4 e03c 9239 553d 9723 753c fbc9 063e
000000f0: 169e 1cbd 3a63 d2bd 55c3 123d 33f3 673d
-0.10376618 -0.13538985 -0.13357808 -0.05589892 -0.001448777 -0.08177271 -0.073695704 -0.010694177
0.10910909 -0.0740141 -0.05546311 0.10007129 -0.03643796 -0.09086061 0.08002574 0.038462535
-0.06780682 0.105168276 0.07168116 -0.097793676 0.013842145 0.08565921 -0.026423467 0.012307131
0.03229897 -0.09485811 0.059632897 0.065706596 0.037845805 0.08146422 -0.005179864 0.08932346
-0.083796404 -0.0011666543 -0.0483039 -0.0031483485 0.02696299 -0.06798532 0.109499305 -0.0041226377
0.008512832 -0.07028297 0.0056249797 -0.0886684 -0.08174352 0.120286755 0.007022504 0.049854934
-0.023735594 -0.038267743 0.04289046 -0.014922619 0.11579822 -0.05842429 -0.04953439 -0.14095816
0.027429951 0.052056856 0.014962099 0.13162987 -0.0382367 -0.10272832 0.035830814 0.056628417

stacks.0.0.fc3.weight f4 [64, 64]
00000000: 0a51 ecbd e91c cbbc 123f 943d b2eb f0bd
00000010: 3bd1 94bd 99bf 12bd 2445 12bd aff8 fbbd
00000020: d795 8dbb 6c9f cebd 09ab c9bd c51f 0b3d
00000030: 7d05 b73d c1ad e9bc fe5f 303c 96bb c4bd
00000040: 5313 333d 5ffc d73d 4c77 a9bd a54c 993d
00000050: a54d 9bbd 4723 a2bd 684d 76bb ef84 b7bd
00000060: 9833 8c3d 2c3e 84bd baa1 a83d 04fb 6c3d
00000070: 6f71 df3d 017a a23d 9f1f ad3d 90ba 653d
00000080: 072a 723a 701c 11ba 8c9d 06be f176 91bd
00000090: fa49 90bd 259f 3c3d 90a6 7a3d a0e0 43bd
000000a0: c9aa 7f3d 0667 a73d 624d a93d 4778 d6bd
000000b0: 9612 8339 cf2a 80bd 42a7 8cbd ee42 efbd
000000c0: 979d 183d aa29 d43c 8279 d83d 382f 9f3d
000000d0: e5cf 8bbd 8f57 f73d 724b c73c 5ccc f33d
000000e0: 076a ad3d b262 b13d 13f5 bcbd 4cf8 f1bd
000000f0: ddd6 7abc 3f40 57bd 897c 03be f92a b8bb
00000100: a69d c3bc 1b97 f2bd 1bdd 233c c69c a7bd
00000110: f166 03bd 3f63 a5bd 2e58 973c 6cd0 9b3d
00000120: dd0b 6fbd 08a8 8d3d 5105 cd3d d8d5 efbd
00000130: 175e c3bd 3eda 803d ff1e d83d b94c 8ebd
00000140: 7815 8c3d 7ab3 fc3d 6c56 a33d 1a6f 6dbd
00000150: 159b b93b e0c4 113c 83c1 c4bd 7796 093d
00000160: 32bf e5bd 612c 3bbd 20d8 50bc 400d b7bd
00000170: b8ae 34bd 449d c73d 397e 833d 046a 1dbd
00000180: 9c91 56bd eaa4 413d c06d 653d 4fe1 04be
00000190: 4e40 293d a269 ef3b d28f 743b 5c56 23bd
000001a0: 9786 0d3b fcb6 fdb9 aae9 343c e599 703d
000001b0: 1d6e edbd 44d0 9bbd 39fb b43d 4f6f 7f3d
000001c0: f534 e2bd da9d 003e dfa8 a13d 9488 393d
000001d0: 56b8 05bd 8b0e a0bb 4a10 a33d 2a7a bbbd
000001e0: 8cb6 50bd 779a cebd 6e1b bebd 3575 3e3d
000001f0: ab31 67bd 8ef3 95bd 6f93 8e3d ac1e a8bd
00000200: 9d9c d3bd 377a f3bc b035 30bd 0061 893d
00000210: 34bd fabb 3e94 933d 3a0e 0b3b ad2e 493d
00000220: fd02 ecbd 1eac 92bd 67ec 943d 773b a43d
00000230: 5ffa 633d 40b2 343b eacc 503c d42e 20bd
00000240: 4f01 8bbd ac81 d1bd 9c3a edbd a72c 00bd
00000250: fc75 263c 5435 96bd c16e eabc a5c7 8a3c
00000260: 8dfc 87bd baee b8bd dbc8 b23d 31bb 9dbd
00000270: 24a4 e3bd 1902 c53d 67fa c23d aa63 dcbd
00000280: 3d72 b2bd ac04 a93d b59d c83d a037 61bd
00000290: 7563 eabd 10e1 4e3d 9363 633d 061d a13d
000002a0: 8e54 abbd 97cf e83d 8e4a 9a3d 82de 8dbd
000002b0: 18be 113c f1f5 b6bc 18fa 373d bdf7 7a3c
000002c0: 028f de3c 1522 f3bd 8522 d2bd 8878 f43d
000002d0: 644f a63c 2840 6e3c 262d 0abe 045e c5bd
000002e0: 9fee c63d 7763 7f3d c705 71bd 16da e1bd
000002f0: 9745 c13d b1c0 f53c aa1a d03c 240c af3d
00000300: 0145 a6bd ad16 3b3d 5975 b2bd 54e7 1e3d
00000310: 0b93 31bd e0d1 adbd ad68 753d 6e85 4d3d
00000320: ac16 213d 055e cf3d fa9a 03be bb19 d13d
00000330: 6f2a da3d adb9 af3d 7e47 cd3d de10 2f3d
00000340: 1f3c 833d 5b8c fc3c d9a4 c33d b0cf 65bd
00000350: fc19 c13d bf3f 03be 0408 a23d 61fe b33d
00000360: 1b7e 84bc 5696 263a 2fb6 dcbb a5f1 a43c
00000370: fca7 213d 74d9 49bc 40de cdbc 67cb b13d
00000380: 0d66 09be 87a3 bdbc f3da d4bd a731 053e
00000390: ef3e 80bd 4e26 903d e40e acbd 6c23 aebd
000003a0: cac4 423d 5cdf b0b9 d892 04bd fb8d 16bd
000003b0: a826 82bd 396f eabd faac f03d 7805 e9bb
000003c0: 2324 f2bd 93c7 7bbd 40e7 7d3d cc7d 5cbd
000003d0: c7ae 6e3d 9408 aa3d dcf1 1ebd 002b a0bd
000003e0: 5e25 a13b 8aad 94bd 6a88 de3d 9b15 b7bc
000003f0: e000 74bd 6a6f 81bd 0583 d73d 3f4c 32bc
-0.115388945 -0.024794059 0.07238592 -0.11763705 -0.0726647 -0.035827253 -0.03571047 -0.12303292
-0.004320841 -0.10089001 -0.098470755 0.033965845 0.08936594 -0.028525235 0.010765074 -0.09606092
0.0437196 0.10546183 -0.08274707 0.07485322 -0.07583169 -0.07916885 -0.0037582759 -0.08960902
0.06845778 -0.06457171 0.08233972 0.057856575 0.109103076 0.07933427 0.08453297 0.056086123
0.000923783 -0.00055355486 -0.13146037 -0.071027644 -0.0704536 0.04605021 0.061194003 -0.04782164
0.062418733 0.08173947 0.08266713 -0.1047216 0.00025000115 -0.06258165 -0.068678394 -0.11682688
0.037259664 0.025898773 0.10570051 0.07772678 -0.06826762 0.12077247 0.024327967 0.11904213
0.08467489 0.08661403 -0.09226432 -0.11814937 -0.015310016 -0.052551504 -0.12840475 -0.005620357
-0.023878884 -0.11845227 0.010001446 -0.08184199 -0.032080594 -0.0807557 0.018474665 0.07608113
-0.058360923 0.06916815 0.1001078 -0.11710709 -0.095394306 0.062916264 0.10552787 -0.069482274
0.06840032 0.1233892 0.07975468 -0.057967283 0.005664239 0.008897036 -0.09607222 0.03359076
-0.11218108 -0.04569662 -0.012746841 -0.08938074 -0.044111937 0.09746793 0.064205594 -0.038431183
-0.052384958 0.047276415 0.05601287 -0.12976573 0.04132109 0.0073062936 0.003731717 -0.03987728
0.0021595114 -0.00048392254 0.011042038 0.058740515 -0.11593268 -0.07608083 0.088369794 0.06236201
-0.11045257 0.12560216 0.07893538 0.045296267 -0.0326465 -0.004884546 0.07962091 -0.0915416
-0.05095534 -0.100880556 -0.092825755 0.046498496 -0.05644385 -0.07321845 0.069617145 -0.08208975
-0.10332606 -0.029721363 -0.04301995 0.067079544 -0.0076519493 0.07206009 0.0021218196 0.04911678
-0.115240075 -0.07161735 0.07271653 0.080191545 0.055658694 0.0027572066 0.012744168 -0.03910716
-0.06787359 -0.10229811 -0.115834445 -0.031292584 0.010159966 -0.0733439 -0.028617265 0.016940901
-0.06639967 -0.090299085 0.087297164 -0.077017196 -0.11115292 0.09619541 0.09520417 -0.10761197
-0.087131955 0.08252844 0.09795705 -0.05498469 -0.11444751 0.050507605 0.055514883 0.07866864
-0.08365737 0.113677196 0.075337514 -0.069272056 0.00889542 -0.02233407 0.044916242 0.0153178545
0.0271678 -0.11871735 -0.1026049 0.11937052 0.020301528 0.014541663 -0.13493785 -0.09637073
0.09713482 0.062350716 -0.0588434 -0.11027925 0.09437101 0.029999109 0.02540334 0.085472375
-0.0811863 0.045675922 -0.087137885 0.03879483 -0.04335312 -0.08487296 0.05991428 0.050176077
0.039328262 0.10125355 -0.12852088 0.10209986 0.10652625 0.08580337 0.10023402 0.042740695
0.064079516 0.030828645 0.095529266 -0.05610627 0.09428784 -0.12817286 0.07911685 0.08788753
-0.016173413 0.0006354799 -0.006735585 0.020134756 0.039466843 -0.012319911 -0.025130391 0.08681374
-0.13417836 -0.023149265 -0.10393324 0.13007222 -0.06262004 0.07038556 -0.08401278 -0.0850285
0.047550954 -0.00033735752 -0.032366604 -0.036756497 -0.06355029 -0.11446995 0.11751743 -0.0071112476
-0.11823299 -0.061469626 0.061988115 -0.053830907 0.05827215 0.083024174 -0.038804874 -0.078207016
0.0049177846 -0.072596624 0.10865863 -0.02234917 -0.059571147 -0.06320079 0.10523037 -0.010882436

stacks.0.0.fc3.bias f4 [64]
00000000: 2f2a a4bd 759f b53d 56f1 d1bb b5d8 dcbc
00000010: f221 693d a263 85bc d4bb cbbd 4b00 5e3c
00000020: c5ce 9bbd be25 adbd 682d a73d 9959 e3bd
00000030: 0c92 023e 68a1 52bd 23a3 abbd 6b1e 90bd
00000040: acc1 d3bd 8dc7 573d 0c1c 1c3c 33d3 08be
00000050: a1e8 a13d 8be3 ad3d fda2 0e3d a4ab 9fbc
00000060: e9be d8bd 8624 97bb 13ce 70bd f7b1 13bd
00000070: 4e19 7c3d f2dc d73d baf7 d13d 2f6a dc3d
00000080: 6f71 b43d 6210 e1bd f4ee fbbd 4974 bb3d
00000090: 0591 01be 8d38 08be 4ff6 efbd dd46 ab3d
000000a0: c72f 19bc 5f1f 83bc ace2 1ebc 1c70 393b
000000b0: df6c 5a3d 1824 a13d 541f 1abd 43a2 773d
000000c0: 0c9e d03d 2e75 893c f010 a33d 99fd 693d
000000d0: b378 1a3d d1e9 cfbd 52c5 a73d 7eb4 9ebd
000000e0: f997 26bc 98fd 4dbd 7a71 463d 4cfc e13d
000000f0: 81d0 b53d 333e d73d c053 fc3d 96cc 9fbd
-0.080158584 0.08868305 -0.0064069433 -0.026958803 0.05691714 -0.01628286 -0.09947935 0.013549875
-0.076077975 -0.084544644 0.081629574 -0.11101074 0.12751025 -0.05142346 -0.08380725 -0.07037052
-0.10339674 0.05268054 0.009528171 -0.13361816 0.079056986 0.08490666 0.034823406 -0.019491024
-0.10583288 -0.004612508 -0.058790278 -0.036058392 0.06154757 0.10540189 0.10252328 0.107624404
0.08810698 -0.10989453 -0.12301436 0.09153039 -0.12652977 -0.13302822 -0.117169015 0.083631255
-0.00934977 -0.01600617 -0.0096975975 0.0028295582 0.053326484 0.078682125 -0.037627533 0.06045748
0.10186395 0.016779508 0.07962215 0.057126615 0.037712764 -0.10152019 0.08191933 -0.0774927
-0.010168069 -0.050290674 0.048448063 0.1103445 0.088776596 0.105099104 0.123206615 -0.078026935

stacks.0.0.fc4.weight f4 [64, 64]
00000000: bc0c d7bd bc38 513d 943a 55bd 814d 563d
00000010: 2169 2ebd 0ae3 f9bd d43f 0a3d 2b27 92bd
00000020: e8c7 e6bd 1db9 adbd 3751 06bd c097 ac3d
00000030: a494 c1bb 76fc 9dbd 5748 a53d 8a57 2d3b
00000040: 08c7 813c 541f 8dbd d2a9 4ebc 184a c23d
00000050: 022e 793d c13a dc3d 784e f8bc a477 b6bd
00000060: 56c4 35bc 7c14 25bd 7576 3d3d e833 e13d
00000070: 7c12 083d 6cff d83b 0103 d83d a4d2 f4bd
00000080: 361c d7bd 8ca4 1abd 60fd f33d 305f d2bd
00000090: 8542 0b3d 888e b43d b72c 13bd 6709 5bbd
000000a0: b9a2 8fbd af23 b93d 38b7 2ebd d075 7fbd
000000b0: 3b1a 66bc 809f a9bd c282 bcbd 9ac2 b13c
000000c0: 8cec e23d 2eb4 cc3d f569 f23c 6c4e 87bc
000000d0: fe11 5a3d 6d29 a1bd a464 4dbd dcf9 c93d
000000e0: 66a1 673d 0816 813d 22d0 bb3d 42bb 6b3d
000000f0: 76a1 993d 2c8a ab3d fd03 813d 2a6b c33d
00000100: 6d6f cabd ed46 103d 69e4 9e3d 6a96 f6bd
00000110: 5d11 023e 5823 523c 9cc7 b63d 75ec 19bd
00000120: 587e b83c b7d7 5e3d 9807 2fbc dc6f 5fbd
00000130: a93e 9c3d 68eb d8bd ff72 593d 02d9 a6bd
00000140: 566d 8fbd a844 3cbd 4228 1d3d 736e c7bc
00000150: 92ae 943d 7dd7 d23d 273b d93d c1cd fe3a
00000160: 6895 d4bd e190 01be e0ed af3d ed11 da3d
00000170: 8bd0 c03d d34c c33c 0465 4bbd e8fc 963d
00000180: fdc8 b33d 4f28 d0bd 76e8 c7bd c937 e2bd
00000190: 0d6e d93d 5717 5e3d 29a4 c6bd 122e 9cbd
000001a0: c24e 9e3c 48c0 5abd 5673 9f3d 41c8 803d
000001b0: 92b8 06bd ccf8 dabd 4fc1 2bbd 8e9e f73d
000001c0: 2cad e23d 55d7 8d3d 9358 cdbc cd75 a03d
000001d0: 74d7 e13c 12d3 b83d c507 38bd 945c d93d
000001e0: 91f5 edbd 6056 31bd 2f67 f13d bf5f fc3d
000001f0: 4892 d73c 1638 fd3d e6fa b33d ae85 87bd
00000200: a04f c3bd 682f 39bd 7ec9 33bc 4c32 45bd
00000210: d1bb b3bd a9e9 cebc 3c47 0fbc aa49 ddbd
00000220: e363 e13d e6d1 f8bd dfb6 d13c 35fc d5bd
00000230: 2700 6c3d 580a 44bd ae97 453d 6c6b aa3d
00000240: d8cf ca3c 190e 023e 1903 96bd 172d a8bc
00000250: 9d25 cfbc 0cd2 003d f4f3 dd3d a693 96bd
00000260: da7b 853d d066 a53d 920a e7bd 0e4c b0bd
00000270: 375d a43c b26d d83d de4a 223d 42a2 023e
00000280: fcc5 f1bc 1892 d6bd 3845 53bd 6b01 803d
00000290: 9e53 f23d 92b3 3dbd 783c cb3d e0bf ab3d
000002a0: 5c70 d0bd aed3 4f3c 3e03 a23d 5238 9d3b
000002b0: 0c01 903d 4395 b1bc 2c47 9c3a f51a aebc
000002c0: cdcf 8e3c efaa a63d e501 bebd 55a6 2dbb
000002d0: 5df2 b8bd dab4 ea3c b771 b4bd fe70 df3d
000002e0: 8b97 bfbc 5040 9ebd be84 b4bc dbc0 ab3c
000002f0: a9c0 d63d a8f3 ac3d 4b95 f7bc 4712 dd3c
00000300: b629 263d 34c9 57bd ca4a 6d3d d8e8 0abc
00000310: 4109 c5bd 8fa8 aa3d dc21 e5bd 0eed 863d
00000320: f1b8 b4bd 4616 853c 4ca1 f7bc 3bf4 ca3d
00000330: 3d23 c0bd 56a4 f2bd 8459 983c b3d1 1fbc
00000340: 8613 963d e29a 9bbd 60bd aa3d 1c39 dd3c
00000350: 87c7 25bc 1d63 a6bd af8c 703d f0d3 f13d
00000360: b2ce 69bc b6ec 143d 3ca3 bbbc 8f0e bebd
00000370: ea51 7bbd aba1 d5bd 963c 883d 4076 1cbc
00000380: 497f 75bd 1f2a 85bd 043a ad3d f93e b0bd
00000390: f813 1bbd cdd5 473d 99dd 2ebd 4b8c 20bd
000003a0: 2378 e7bc f687 813d cc1d a13d bf57 603d
000003b0: a6fd 843d 0f33 a1bc ebdc adbd 3852 76bc
000003c0: cc82 9dbc e345 7b3d b757 4e3d 182b ca3d
000003d0: 9f5a 813d 57a7 f63b 3a5d 33bd 18f3 b1bd
000003e0: 9542 0bbd 581f 8f3d 367a 70bd 741b f83d
000003f0: ca51 613d 7045 003e 57b0 93bd 5d32 d9bd
-0.10500476 0.051079497 -0.052057818 0.052320007 -0.042580727 -0.122015074 0.033752277 -0.07136377
-0.11268598 -0.08482573 -0.032792296 0.084273815 -0.005907612 -0.07714169 0.08070438 0.0026449882
0.015841976 -0.06890741 -0.0126137305 0.094867885 0.060834892 0.10753394 -0.030310854 -0.089095384
-0.011094173 -0.04030274 0.046255548 0.109962285 0.033220753 0.0066222455 0.10547448 -0.11954239
-0.10503428 -0.03775458 0.11913562 -0.10272062 0.033998985 0.08816248 -0.035931315 -0.053475764
-0.07013459 0.09040009 -0.0426552 -0.062368214 -0.01404434 -0.08282375 -0.092046276 0.021699239
0.11080274 0.09995304 0.02959154 -0.016516887 0.053239815 -0.078692295 -0.050144807 0.0986211
0.056550406 0.0630303 0.091705576 0.05755163 0.07501499 0.083759636 0.06299589 0.09541924
-0.09884534 0.03522389 0.077584095 -0.12040408 0.12701936 0.012825809 0.08924791 -0.03757902
0.022521183 0.05440494 -0.010682963 -0.054550037 0.07629139 -0.10591775 0.053088184 -0.0814686
-0.07003276 -0.045963913 0.03836847 -0.024344658 0.07259859 0.102950074 0.106069855 0.0019439982
-0.103800595 -0.12652923 0.08590293 0.1064795 0.094147764 0.023840344 -0.049656883 0.07372457
0.0877857 -0.10163938 -0.09761135 -0.110457964 0.10616694 0.054221477 -0.0969928 -0.07625975
0.019324664 -0.05340603 0.077856705 0.062881954 -0.032890864 -0.106919855 -0.0419324 0.12090789
0.11068186 0.06925837 -0.02506665 0.07834969 0.027568556 0.090246335 -0.044929285 0.10613361
-0.11619104 -0.043295264 0.11787259 0.123229496 0.02631487 0.12364213 0.087880895 -0.06617294
-0.09536672 -0.045211226 -0.010973332 -0.04814367 -0.087760575 -0.025257902 -0.008745011 -0.10805066
0.1100538 -0.1214941 0.025599895 -0.10448495 0.057617333 -0.047861427 0.048240356 0.0832127
0.02475731 0.1270069 -0.073248096 -0.020529313 -0.02528649 0.031450316 0.10837546 -0.073523805
0.065177634 0.080762506 -0.11281313 -0.08608256 0.02006398 0.10567798 0.03962218 0.12757209
-0.029513352 -0.10477084 -0.051579684 0.062502705 0.11832355 -0.04631383 0.09923643 0.083862066
-0.10177681 0.012684746 0.07910775 0.0047979737 0.0703145 -0.021677619 0.0011923066 -0.021253088
0.017433072 0.08138072 -0.09277705 -0.0026496847 -0.09030602 0.02865069 -0.08810752 0.109102234
-0.023387691 -0.077271104 -0.022035953 0.020965984 0.10485966 0.08444911 -0.030222556 0.026986254
0.040567122 -0.052682117 0.057932653 -0.008478366 -0.09620906 0.08332931 -0.11188099 0.06588183
-0.08824337 0.016245972 -0.03022828 0.099098645 -0.09381721 -0.11847751 0.018597372 -0.009754586
0.073279426 -0.07597901 0.08336902 0.027004771 -0.010118372 -0.08124373 0.058727916 0.11808002
-0.014270471 0.036358558 -0.022904985 -0.092801206 -0.061357416 -0.10431226 0.06652181 -0.009549677
-0.05993584 -0.065021746 0.08458331 -0.08605761 -0.03786084 0.04878788 -0.0426918 -0.039196294
-0.028255528 0.063247606 0.078670114 0.05477118 0.06493692 -0.019677667 -0.084894024 -0.015034251
-0.019227408 0.061345946 0.05037662 0.09871501 0.06316113 0.0075272727 -0.04379008 -0.086889446
-0.033999044 0.069884 -0.0587103 0.12114611 0.05500964 0.12526488 -0.072113685 -0.10605309

stacks.0.0.fc4.bias f4 [64]
00000000: aba6 30bd 9684 953d a1df 8a3c aa0b d23d
00000010: 7ae8 4ebd 8688 e1bd 3008 e5bd 9c28 93bd
00000020: 9fef 943d e7e4 51bd 9f99 70bd 20d4 05bd
00000030: 6d1e 3d3d d1e5 55bb f0e5 8eba 85f7 863d
00000040: 47c7 b0bd fef3 bc3d 5e25 c8bc d10b d7bd
00000050: 9202 a2bd 1d98 c03d df09 b5bd f751 2e3c
00000060: 9a90 48bb 0cfe 6e3d 7a62 b2bd f7c4 6e3c
00000070: 3a9f 53bd 1d23 9b3d aace 283d 6b4d 4a3d
00000080: cf72 5cbd b1e4 953c 52a5 8f3d dca8 ca3c
00000090: 20af df3d 96fa 2bbb 7d2b 1b3d 578e f83c
000000a0: 9433 b7b9 ee96 d8bd 2ab0 e53c 2cfd 4ebc
000000b0: 8e16 eabd 3053 b9bd be27 debc 4acb 3f3c
000000c0: ee40 d43d 1446 333d 84e5 5a3d 1ef2 8d3d
000000d0: 9167 0a3c f9fa b2bc a84b b1bd 1b24 adbd
000000e0: 209f 993d 0e09 bbbd abfc dabd 9c4d 85bd
000000f0: 5422 8abd 422a fbbc 4147 923d 0c50 a53d
-0.043127697 0.073006794 0.016952338 0.10256131 -0.050514676 -0.11012368 -0.11183202 -0.0718548
0.072722666 -0.05124369 -0.058740254 -0.032673 0.046171594 -0.0032638202 -0.0010902267 0.06590179
-0.08631759 0.09226225 -0.02443188 -0.10500301 -0.079106465 0.09404013 -0.088397734 0.010639659
-0.0030603767 0.058347747 -0.08710189 0.014573327 -0.051665522 0.07575057 0.041212715 0.049390238
-0.053820428 0.018297525 0.07013954 0.024738722 0.10922074 -0.002624189 0.03788327 0.03034131
-0.0003494291 -0.105756626 0.028038103 -0.012633603 -0.11430083 -0.0904907 -0.02711856 0.011706183
0.10363947 0.043768004 0.05344154 0.06930946 0.008447544 -0.021848189 -0.086570084 -0.08454152
0.07501054 -0.091325864 -0.10692724 -0.065089434 -0.06744829 -0.030659799 0.07142497 0.08071908

stacks.0.0.theta_b_fc.weight f4 [4, 64]
00000000: b843 dcbc e419 d1bd f51d dc3d 92f2 073d
00000010: 3b94 5abc f0ea 67bd 806e aabc 50dc 95bc
00000020: 8b53 acbd 5ef8 633d d788 e83d 157c e23d
00000030: c49d 27bc b430 bdbc 2fc9 95ba ca15 83bd
00000040: 361d 943d e282 dcbd b0db a63d b701 073e
00000050: 4837 f33c 42ff 963c a3d6 a9bd db8a bbbc
00000060: 8fb4 26bd ba46 83bd 6ce9 f7bd 2993 1c3d
00000070: cc76 0ebd 6798 1dbd e7e5 fe3b 6634 cdbb
00000080: e30f 1a3d 3d60 c23d a7db 92bc 3123 0cbd
00000090: 2ba2 acbd e3a0 993d 6018 9d3d 3439 c1bc
000000a0: 5924 a1bd c8c8 c8bd 33eb 293c 8d32 8a3c
000000b0: d0af 633c 1874 a43d e0cc d23d 8fb8 393c
000000c0: df06 ddbc e60a 67bd 0fa8 b43d a424 e1bd
000000d0: a5b6 b83c 3651 b83b 3c04 da3d c2cf 60bd
000000e0: 3d9b a53b b055 27bd 7233 3cbc 7262 f43d
000000f0: f099 5e3c 54c7 cebc 327c 72bd ff82 a2bd
00000100: 8702 2ebc 53a0 60bd ff97 023d 29cb 71bc
00000110: 2822 b53d 3040 abbd 2485 403d eca5 433d
00000120: 2676 9abc 119a 63bc 3eb0 6e3c 9211 79bc
00000130: ff19 d03d 9231 a53d 38ea 793d c18f 863d
00000140: 0651 c63c dc0a b4ba 5313 d7bc e1d7 c73d
00000150: dec7 c33d 6b87 bcbd e440 903d d468 563c
00000160: 301e c7bd 62e3 4d3d dcb7 cebd f650 c63d
00000170: 254a 5bbc d12f dd3b 625a 00be c4f3 b2bd
00000180: 2622 fdbd 0940 94bd 0f03 efbd 538c 02bd
00000190: 7164 b3bc a679 b23d 7760 37bd c659 8a3d
000001a0: 0a0c 003e e229 0abc b48f db3d 17cc 973d
000001b0: e027 21bc 3c70 2a3d 4e9a c03d 1fee fc3d
000001c0: 0312 d7bd 53e5 e3bd e46b 2f3d 2c6f c33d
000001d0: 1dc1 1e3d 4314 02be 791e a5bd 9261 09bd
000001e0: b52f 7d3d ee06 ebbd 78f3 59bd 0054 333d
000001f0: 00f7 433b a5c9 193d cbf4 19ba 0b1e b23d
00000200: 1543 4d3d a069 32bd 8971 e93d 624a ef3c
00000210: 3ab5 94bd 802c ce3d 801d c53a 8a1d 993d
00000220: f452 f0bd 956d 443d eefe b4bd 0a57 51bd
00000230: f8a9 ac3d 40d6 cbbd 8e75 da3d b570 1abd
00000240: 71b3 de3d c8e2 ab3c 1a88 d8bd 1435 78bd
00000250: 4a45 f73d 3cf2 84bd 0c9e 30bd d69b f4bc
00000260: d036 c13c 4473 3b3c 5c70 b5bd dfd7 44bd
00000270: 31cb c73c 351e c53d 3694 5cbd f965 a3bc
00000280: 18fc e73d cc05 95bd 83c1 d0bd fa92 9d3d
00000290: 5c33 c3bb 1b0b a4bd c433 093c e0c5 a73d
000002a0: dfcc 5a3d c3d0 cb3d 978b bdbd 00a1 9e3d
000002b0: 0830 dd3d faa6 c1bd 2451 dc3c c5cd a43b
000002c0: 3b69 c8bd d8bb e2bd 3262 93bd fbfd 013d
000002d0: fff7 97bb bafd ea3d e8d4 b83d 1401 64bd
000002e0: 049d d7bd 68bb ac3c 4747 f8bd c272 8d3d
000002f0: c008 913d 6f4e 603d 763b 633d 4f3f 5b3d
00000300: 29a7 ab3b ada7 293d c653 b33c 3f88 01be
00000310: e051 bebc 56bf 9b3d ac55 b7bd d08b 463d
00000320: 5447 c63a ff02 143d bc94 b1bc bd28 243d
00000330: 95c8 5b3d 8b66 65bd af83 113d d95c b63d
00000340: 1639 cf3c 55f8 213d 661a 863d 1ffe d5bc
00000350: 1c8d 65bd 5dd0 c63d 7143 293d c469 31bd
00000360: 5cc1 df3c 48c8 6b3d 806c ba3d 3dd7 093c
00000370: eb0f 19bd b751 15bd f6b7 893d 2ad8 e03d
00000380: aac0 9dbd 7363 b63d 7cf3 423a 7d85 bfbd
00000390: bd6e b2bc 1365 813d af69 57bd 14ee 283d
000003a0: 68a5 7b3b 7fd7 383b 9575 af3d 63c8 ba3d
000003b0: de40 903d beeb b1bd 8391 a63d 325a d43d
000003c0: c7e3 acbd 6d50 083c 4e73 5dbd 0541 f73d
000003d0: 2d41 9f3d dd85 50bd 0f7e 3a3d da6e f43d
000003e0: 7d40 27bd 7841 fcbd 7aa9 503d 0044 a239
000003f0: 5488 f83d a037 95bd 8728 4dbd b0ba eabd
-0.02688776 -0.10210016 0.10747901 0.033190317 -0.013341005 -0.05662054 -0.020804644 -0.01829353
-0.08414372 0.055656783 0.11354225 0.11058823 -0.010230485 -0.023094513 -0.0011427755 -0.0640064
0.07232134 -0.107671514 0.08147371 0.13184248 0.029689446 0.018432263 -0.08292892 -0.02289336
-0.040699538 -0.064099744 -0.121050686 0.03822628 -0.034781262 -0.03847542 0.0077788713 -0.00626235
0.037612807 0.09491012 -0.017927004 -0.03421325 -0.084293686 0.0750139 0.07670665 -0.023586847
-0.07868261 -0.09803921 0.010371017 0.016869808 0.013896897 0.080299556 0.10292983 0.011335506
-0.026980815 -0.056406878 0.08821117 -0.10993317 0.02254803 0.0056249155 0.10645339 -0.054885633
0.0050539062 -0.040853202 -0.011486875 0.119328395 0.013586506 -0.025241531 -0.059200473 -0.07935142
-0.01062072 -0.054840397 0.031883236 -0.01475791 0.088444054 -0.08361852 0.047001973 0.047765657
-0.018855166 -0.013891713 0.014568387 -0.015201943 0.10161208 0.080660954 0.061014384 0.06570388
0.024208557 -0.0013736147 -0.026254332 0.097579725 0.09559606 -0.092055164 0.07043627 0.013086516
-0.09722555 0.050265677 -0.10093662 0.09683411 -0.013384377 0.006750085 -0.12534478 -0.08737901
-0.12360029 -0.07238776 -0.11670505 -0.031872105 -0.02189848 0.08714609 -0.04476973 0.06755404
0.12504593 -0.008432837 0.107207686 0.07411974 -0.009836167 0.04161094 0.09404431 0.123501055
-0.10501482 -0.111277245 0.042827502 0.09542689 0.038758386 -0.12703042 -0.08062453 -0.033540316
0.061813075 -0.11475931 -0.053210706 0.04378128 0.0029901862 0.03754582 -0.0005872964 0.086971365
0.050112803 -0.043557763 0.11398608 0.029210273 -0.07261129 0.100670815 0.0015038699 0.07476337
-0.11734572 0.047956068 -0.088376865 -0.051108398 0.084308565 -0.09952974 0.10666953 -0.037705142
0.108740695 0.020982161 -0.10572834 -0.060597494 0.12073763 -0.06491515 -0.043119475 -0.029859465
0.023585707 0.011441056 -0.088593215 -0.048057433 0.024388881 0.09624902 -0.053852282 -0.019946085
0.1132738 -0.07276496 -0.101931594 0.07694049 -0.0059570502 -0.08009931 0.008374158 0.081920385
0.053418037 0.099519275 -0.0925514 0.07745552 0.10800177 -0.094556764 0.02689416 0.0050294125
-0.09785696 -0.110709846 -0.07196464 0.031736355 -0.0046377177 0.11474176 0.09024984 -0.05566509
-0.10527995 0.021085456 -0.1212297 0.06906654 0.07081747 0.0547623 0.05547663 0.053527173
0.005238433 0.041419674 0.021890532 -0.1264963 -0.0232324 0.07604854 -0.089518875 0.04847318
0.0015127459 0.03613567 -0.021677367 0.040077914 0.053658087 -0.056005996 0.035525974 0.08904428
0.025295775 0.03954347 0.06548004 -0.026122151 -0.056042776 0.09707711 0.041324083 -0.043313757
0.02731388 0.05756405 0.09102726 0.008413133 -0.037368696 -0.036454882 0.06724541 0.1097873
-0.077027634 0.08905687 0.00074367947 -0.09351633 -0.02178132 0.063181065 -0.052591022 0.041242674
0.003839815 0.0028204618 0.08567349 0.09120252 0.070436224 -0.086875424 0.08133223 0.10368766
-0.084418826 0.008319956 -0.05406504 0.12072948 0.07776103 -0.050908912 0.045530375 0.11935206
-0.040832985 -0.12317175 0.050942875 0.00030949712 0.121353775 -0.07286 -0.050087478 -0.11461389

stacks.0.0.theta_f_fc.weight f4 [4, 64]
00000000: 1cff ebbd b2c8 1e3d 327f ab3d 4406 d13c
00000010: 9d25 89bb 5c5a 37bd 40f2 283d 3c73 f13d
00000020: cb59 7abd 85a7 4b3d 163f 3d3d 3c66 debd
00000030: 8ee2 d23d f0dd e8bd d856 323d 9609 bdbd
00000040: a6d4 a33d 5cc9 c1bd 835f d93d 4126 213d
00000050: 30e6 353c 5870 90bd a9aa 25bc 936f 993d
00000060: fb6f 9e3c f0a5 b33d ac72 e43d b82b 16bb
00000070: ac50 70bc f70d 9bbd 5f15 d53c 06b6 a4bd
00000080: bab3 9fbd 3e0e e2bd 9021 fb3d d3c0 09bd
00000090: 6077 d538 6bfc 883d c327 dabc de9b ae3d
000000a0: f681 5f3c 21dd 18bd 100f f33d a7ee 043d
000000b0: 7aef 96bd 4497 35bd 7f7e 55bc 4bad 8a3d
000000c0: 3917 813d 8316 86bd 33df e43d 6fba b23c
000000d0: 718c c23d 8e86 18bc 6f41 c83d a1d6 863d
000000e0: d26f e9bc 6440 083d a60c 853c 3c9e bb3d
000000f0: 4cda b93d 4105 cd3d 33ff 55bd 2ba3 afbd
00000100: f0f9 d0bc c24b aa3d 05d4 b43d acd2 883d
00000110: 03b5 60bd c8f9 263d 6060 46bd fe2e 81bd
00000120: 46ba b33d 25dd e3bc 90e3 cfbd a3bc 033e
00000130: 996c a0bd e7eb 893b 41da 51bc e8a8 c0bd
00000140: 71ec df3d e220 0fbc 83a1 3fbd 4624 713d
00000150: 804b bcba 812d c13d 7694 35bd a891 bbbc
00000160: 14a1 81bd b675 d9bc 50f0 89bc e128 87bd
00000170: 3493 743d bb52 c13d 7e7c c43c a8f3 e6bc
00000180: 2e40 a13d 7f0c 9f3c 10ca b73d 560b 13bd
00000190: 6e5b 55bd 85c8 a63d fdfc 0d3d 6957 b23d
000001a0: ce37 5a3d d954 e0bc fb2f a93c aafc b0bd
000001b0: 6a2a d83d 8076 c8bc b062 273d 3699 d3bc
000001c0: 08b5 ca3c 9ba4 5abd efb7 82bd d682 3e3a
000001d0: 8112 2cbb 0533 c7bd 5e8a cdbc b0d8 fbbc
000001e0: 51e0 533c 040e 38bd af32 f03d 92db 81bd
000001f0: 1ee5 b23d 5ef2 b9bd 36c1 73bd 7d80 dfbd
00000200: e7a2 e73d 52dd 9b3d 80d6 b5bd 628f da3d
00000210: 57b4 8dbd 886b 653d c8ce 643d 4045 5a3b
00000220: d6fd 5ebd 832f d73d 577d adbd 03f4 8a3d
00000230: 0544 ddbb 7035 ea3d 5615 1bbc 3e6d 1fbd
00000240: 0e4f 6b3d fa49 ec3d f044 e63d ff30 8abd
00000250: e855 3a3d 55e3 c6bd 0c18 3f3c 9db6 273d
00000260: 6d23 923d a096 a9bd ecd5 7a3d c252 3a3c
00000270: 8068 a7bd c992 b03c 8306 b13d 4895 dc3d
00000280: 42be d23d 66b4 323d b4f6 123d 1f7d b83d
00000290: fdda e73c 1300 143d 301c e03d 3073 b93c
000002a0: bc5e c83d d453 a0bd 094d 7c3d 8182 eb3d
000002b0: ccf2 063d f27e ad3d 30e6 d8bd fc7b b5bc
000002c0: d3fb c43d 593b f3bd d1f4 94bd 265a 933d
000002d0: 5c4d 4cbd efce d3bd 74b9 163d c34a f0bd
000002e0: 56d6 773d 888b f0bc 1c07 f23d b884 e83d
000002f0: b830 c8bd b8e2 05be 1a33 1cbd 0ef4 01be
00000300: 7d28 aabd 02c6 f23d fe6a b5bd 11ec 97bd
00000310: 7d1e cbbc f460 b1bd 00c2 58bd 58ce a1bd
00000320: 37ce d13d d88f b03b 2ecb 1d3d 81e1 e5bd
00000330: 3cf9 35bd c9b6 cfbd f52c 7d3d 07ee be3d
00000340: f0c6 553d c2e9 d93c df4c c3bd f22e d23d
00000350: 7803 913c 3142 bfbd 338f 15bc de0f 893d
00000360: 0548 e83d bd33 a23c 006f 9d3b 7c40 793d
00000370: 1f7d 88ba 5080 43bd 3afb 5bbc 5848 a63c
00000380: ab46 d93d cdc9 64bd 18f9 a43d ce7c e4bd
00000390: b1eb 013d 1726 8dbc 239e ccbd 10b4 91bd
000003a0: 76f1 cc3d 9236 303d 0711 d2bd f5a4 8bbd
000003b0: f0e1 ddbd 3838 bfbc 1988 cb3d f037 bbbd
000003c0: 0e7b d8bd 34e1 67bd c867 14bd 6ea8 b43d
000003d0: 6239 cbbd 78e7 203d 9056 75bd 9f3d 92bd
000003e0: 4c7b fd3c 44f2 0ebd 7913 923d 58b8 f9bd
000003f0: 8afc d5bd e8a5 553d d7fc b8bd 2f31 413d
-0.115232676 0.038765617 0.0837387 0.025515683 -0.004185392 -0.044763908 0.041246653 0.11789557
-0.06112079 0.049720306 0.04620274 -0.108593434 0.10297118 -0.11370456 0.043539852 -0.09230344
0.07999544 -0.094622344 0.106139205 0.039343122 0.011102244 -0.07052678 -0.010111489 0.07491984
0.019340506 0.087718844 0.111546844 -0.0022914242 -0.014667671 -0.07571023 0.026011167 -0.08042531
-0.07797952 -0.11037873 0.12262261 -0.033631157 0.00010178867 0.0668877 -0.026630288 0.08525823
0.013641825 -0.03732026 0.11868107 0.03245416 -0.07369895 -0.04433371 -0.013030647 0.06771334
0.063032575 -0.065472625 0.11175384 0.021817414 0.09499443 -0.009309424 0.097781055 0.06583906
-0.028495703 0.033264533 0.016241383 0.0916104 0.0907484 0.10010768 -0.05224533 -0.08576044
-0.025509804 0.08315231 0.08829502 0.066808075 -0.054860126 0.040765554 -0.048431754 -0.06307791
0.08775763 -0.02781541 -0.10150826 0.12864928 -0.07833213 0.00420903 -0.012808383 -0.09407216
0.109337695 -0.008735867 -0.04678489 0.058872484 -0.0014365762 0.09432507 -0.044331037 -0.022896603
-0.06329551 -0.026545387 -0.016838223 -0.06599594 0.059710696 0.09439608 0.023985144 -0.028192356
0.078735694 0.019415138 0.08974087 -0.035899483 -0.052089147 0.08143715 0.034665097 0.087080784
0.053275876 -0.027384209 0.020652762 -0.08641942 0.10554965 -0.024470568 0.0408656 -0.025829893
0.024744526 -0.053379636 -0.06382739 0.0007267421 -0.0026256146 -0.09726528 -0.025090393 -0.030742973
0.012931899 -0.04493524 0.11728417 -0.06340708 0.08735107 -0.09079431 -0.059510432 -0.10913179
0.11310368 0.07610573 -0.08878803 0.10671879 -0.06919163 0.056010753 0.055861264 0.0033305436
-0.054441296 0.10507109 -0.08471172 0.06784823 -0.0067524933 0.11435974 -0.009465536 -0.03892254
0.05744844 0.115375474 0.112436175 -0.067476265 0.045492083 -0.09711329 0.011663448 0.040945638
0.07135663 -0.082806826 0.061239168 0.01137227 -0.08174229 0.021554368 0.0864382 0.10770661
0.10290195 0.043629073 0.035879806 0.0900824 0.028302664 0.036132883 0.10942876 0.022637933
0.09783694 -0.07828489 0.061596904 0.11499501 0.032946393 0.084714785 -0.1059078 -0.022153847
0.09618344 -0.11876554 -0.072732575 0.07194929 -0.049878463 -0.10342204 0.036797956 -0.1173301
0.06050714 -0.029363409 0.11817762 0.11353439 -0.09774917 -0.13074768 -0.03813467 -0.12690756
-0.08308504 0.11854173 -0.08858298 -0.07418073 -0.024794811 -0.086610705 -0.052919388 -0.07900685
0.102444105 0.0053882413 0.038523845 -0.11224652 -0.04442714 -0.101422854 0.061810452 0.09322744
0.052191675 0.026600722 -0.095361464 0.1026286 0.01770185 -0.09338797 -0.00912838 0.066924796
0.11341862 0.019800061 0.004804492 0.060852513 -0.0010413266 -0.04772979 -0.013426596 0.020298168
0.10609182 -0.055856515 0.08055323 -0.11156617 0.031718913 -0.017230077 -0.099911 -0.07114422
0.100069925 0.043020792 -0.10257154 -0.068185724 -0.1083411 -0.023342237 0.09938068 -0.091415286
-0.10570346 -0.056611255 -0.036231786 0.08821188 -0.09923054 0.039283246 -0.059897006 -0.071406595
0.030942582 -0.03489901 0.0713262 -0.12193364 -0.10448559 0.052160174 -0.090326004 0.047166046

stacks.0.0.backcast_fc.weight f4 [4, 4]
00000000: 0fed d53e ae93 0b3d 09cf fb3e dc23 4ebd
00000010: b320 033e 9bea 833e f772 583e 879e ebbe
00000020: 6a52 0ebe f16e 443e a541 bcbe 8ed6 d43e
00000030: e127 f13e 7f61 ed3e ff28 06be 4e31 453e
0.41782424 0.034076385 0.49181393 -0.050327167 0.12805443 0.25764927 0.21137606 -0.46019384
-0.13898626 0.19182946 -0.36768833 0.41569942 0.47100738 0.46363446 -0.13101576 0.1925709

stacks.0.0.backcast_fc.bias f4 [4]
00000000: 2d4c 0e3d 88a7 53be 14f9 8abd 705a 83be
0.034740616 -0.20669377 -0.06785789 -0.25654936

stacks.0.0.forecast_fc.weight f4 [1, 4]
00000000: 26ff 24be 6d33 a7be d179 0b3e 50b9 ce3d
-0.16112956 -0.32656422 0.13620688 0.10093939
