python/chronos/test/bigdl/chronos/resources/tsppl_ckpt/lstm_tsppl_ckpt/best_model.ckpt (torch, 21029 bytes, 6 tensors)

lstm.0.weight_ih_l0 f4 [128, 2]
00000000: 845c b03d b544 2a3c 3ed3 b03d 333c 9bbe
00000010: 6837 b33d 8d85 98bc b263 233c 63ab d0bb
00000020: 4272 e03d 6467 9f3e 9057 37be 8f54 5ebe
00000030: 3fd2 4dbe e23a 203e 66ee 40bd f887 d9bd
00000040: f3a3 77bc 9aae 213e 8a81 7e3d 23a2 36bd
00000050: 907a 003d ab0d 363e 45a8 2a3e 1dd6 2c3d
00000060: 45ff 9e3c e288 0b3e 605b fd3c 318f 9b3c
00000070: 75be 393d c1ba 00be 1d79 d8bc 9265 1f3e
00000080: 6d9e 34bc 16da 943d c34f 5d3e 4aa1 233e
00000090: c2a9 aebd a1f7 093d d185 d0bc b5e9 24be
000000a0: 13ca 403d 9384 45bc ebbf ecbc 0674 503e
000000b0: 8b02 103e aca2 413e 750f bcbb 52d7 48be
000000c0: 210e 623d f947 993d 5173 273d 2935 17bd
000000d0: 1abf b33c 614f 6b3e d6ff 83be 72ba cf3c
000000e0: 459f 053e e641 f7bc 1618 913c 8cb6 a03d
000000f0: 68f6 163d 3c6d 13bd 3b19 3c3d 18fa 593e
00000100: aed8 a13d fdad b5bd e4dc 65bd e204 6c3d
00000110: eb00 1b3e 360e b8bb e56c d53b 1cdf c1bd
00000120: 03a4 1a3e 3ce5 2e3e c865 1a3e dbd3 e83c
00000130: 19af 823d d597 4a3d 3d7b 5c3d 0190 143d
00000140: 9f03 09be 33b2 8a3e aba8 b4bb e4f7 24bd
00000150: dc93 ce3d 1241 9b3d dcc8 473d 78c0 f93d
00000160: 9e3c ab3d f2c1 7f3e 9b50 93bd 5c8a 27be
00000170: a391 03be ed9f 3b3e 3f8e fabd 191a 59be
00000180: 09f5 2d3e 5edf 1dbd e777 21be ea6b 98bd
00000190: 3e90 83be 142a adbd 0242 88bd 96c2 00be
000001a0: fc98 fbbd 61c5 1f3e e3cf 1abd e618 1dbe
000001b0: 1f54 03be 06e5 953d 432f 563e 0a24 313e
000001c0: a234 153e dadb b83d fcea 2bbe e3e8 543e
000001d0: 52a0 ad3d 1e7a b7bd da2e 233e 6a6d 60bc
000001e0: 1503 f53c c082 edbd b950 1b3c d681 06bd
000001f0: e49f f7bc 2827 14be fc39 bd3c f444 99be
00000200: 42fb 83bc c929 29be 6a13 e63c 9bdc 44be
00000210: dc19 6f3d 1fdd a6bd 0ec5 6a3e 045b a43c
00000220: 25fa c83d 5895 d23d 17fd 29bc fdfe 16be
00000230: 4464 aabb 5e17 273e e941 54bd 3452 033e
00000240: 0760 83bc 4073 503d 4c33 d83d f69b 09be
00000250: 9b77 863d cc6c 023e 22e1 613d 556e 02bd
00000260: 63f2 84bd 8972 a5bd 837e 413e e7b8 14be
00000270: 63ee 433d c00d ec3c fbc2 8fbb ef15 4d3e
00000280: 3bbc 36bd a862 2fbe 5560 d83d b492 e23c
00000290: 23fa 3bbe 7dfc 823d 1aff 033e 1327 003e
000002a0: 31f5 6c3d 6d66 c63d d253 9c3c eab2 d0bd
000002b0: bd8a 853c 04ed cbbd efe7 f5bd 44a6 adbd
000002c0: 8b00 08be 0688 3cbe fc5b ac3d 9728 bbbd
000002d0: 8ed6 3ebd 10e7 89bd ccc8 9abc 67b3 243e
000002e0: fb9b 4bbd db4d debd 3a1e b6bd 1e6e 9cbd
000002f0: 98bc 06be f60d 843c a1b4 a43c 9199 f03c
00000300: 8a49 363d 5b57 933d b3ba 98bb 7a82 86bd
00000310: 62c3 39be 5c32 75bb d68f bfbd 3b74 453d
00000320: e8ae 273e 1e19 71bc 32ae bf3c a724 73bd
00000330: 5402 e8bd 1b89 b6bc 64e3 593c 7e26 08bd
00000340: 5bfc 0dbe 05f0 ecbd 6e9d 053e 297e 82bd
00000350: 2a4b d0bd 22cc f9bb c6b7 3bbd c99e 83be
00000360: 8bb3 2d3e 33cf 143e e2e8 97bd e5bc 6d3d
00000370: b185 793d 02d8 debd 997e 4ebd 9ab9 cd3d
00000380: 3a2f 5bbe 974c 48bc e9be eebd 9224 65bc
00000390: a14c f53d 6b62 6bbe 3c0f df3c 01b0 2c3d
000003a0: b7c0 e8bd 9949 3b3e a6f6 a63b ea58 563e
000003b0: a29f 2a3e 0253 55bd 86a8 8c3c 1a92 c43d
000003c0: 4f2b 2c3c e257 16bc 275f 08be 5d83 cebb
000003d0: 9392 c0bd d518 07be e7f8 93bd 8426 003e
000003e0: ce03 07be ce03 053e c6a2 1d3b 1c0c adbe
000003f0: 79b3 74be 8466 45bd deca 43bd d13a 44be
0.08611396 0.010392358 0.08634041 -0.30319366 0.08750802 -0.01861837 0.0099725 -0.006368087
0.10959293 0.31133568 -0.17904496 -0.21711944 -0.20099734 0.15647462 -0.047102354 -0.10621637
-0.015114772 0.15789261 0.062135257 -0.04458822 0.031366885 0.17778651 0.16665752 0.04219638
0.019408831 0.13626435 0.03092736 0.018989177 0.04534765 -0.12571241 -0.026424939 0.1556609
-0.0110241 0.07268159 0.21612458 0.15979496 -0.085284725 0.033683423 -0.025454434 -0.16104777
0.047067713 -0.012055534 -0.028900107 0.2035676 0.1406347 0.1890971 -0.0057391473 -0.19613388
0.055189256 0.07484431 0.04088146 -0.03691593 0.02194171 0.229795 -0.25781125 0.025357459
0.13049038 -0.03018279 0.01771168 0.07847318 0.036856085 -0.035992846 0.0459225 0.2128681
0.079026565 -0.08871076 -0.05611886 0.057621844 0.15137069 -0.0056169285 0.0065132254 -0.09466383
0.15101628 0.17079633 0.15077889 0.028421333 0.063810535 0.049461205 0.053828467 0.036270145
-0.13380288 0.2708908 -0.005513271 -0.04027547 0.10086796 0.075807706 0.04877554 0.121949136
0.08361171 0.24976328 -0.07193109 -0.16361374 -0.12848525 0.18322726 -0.122341625 -0.21201362
0.16988005 -0.038543098 -0.15768395 -0.07442458 -0.25695986 -0.084552914 -0.06653215 -0.12574229
-0.12285039 0.15602638 -0.037795912 -0.15341529 -0.12825058 0.073190734 0.20916466 0.17298904
0.14570859 0.09026308 -0.16788858 0.20791964 0.08477844 -0.08958839 0.15935841 -0.013697961
0.029908696 -0.11597204 0.009479695 -0.032838665 -0.030227609 -0.14468062 0.023098938 -0.2993542
-0.01611102 -0.16519846 0.02808543 -0.1922478 0.05837427 -0.08147644 0.22926733 0.02006293
0.09813336 0.10282391 -0.010375283 -0.14745708 -0.005199941 0.16317508 -0.05182067 0.12824327
-0.016037 0.05089116 0.10556659 -0.134384 0.06565782 0.12736815 0.055146344 -0.031843502
-0.06491544 -0.080784865 0.18895917 -0.1452366 0.047834765 0.02881515 -0.004387257 0.20027898
-0.044613104 -0.17127478 0.10565249 0.027657844 -0.18357138 0.063958146 0.12890282 0.12514906
0.05785102 0.09687505 0.019082937 -0.10190375 0.016301507 -0.099573165 -0.120071284 -0.08478978
-0.13281457 -0.18411264 0.08415982 -0.09138601 -0.046591334 -0.06733525 -0.018894576 0.16084062
-0.0497093 -0.108546935 -0.08892484 -0.07638191 -0.1315788 0.016119938 0.020105662 0.029370101
0.044503726 0.07194396 -0.004660928 -0.06567855 -0.18140939 -0.003741405 -0.093536064 0.04820655
0.16375315 -0.014715461 0.023398492 -0.059361126 -0.11328569 -0.022282174 0.013298843 -0.033239834
-0.13865797 -0.115692176 0.13048336 -0.063717194 -0.101705864 -0.0076232115 -0.045829557 -0.2570708
0.16963021 0.14532165 -0.07417466 0.058041472 0.060918514 -0.10881044 -0.0504137 0.10045166
-0.21404734 -0.012225292 -0.11657507 -0.01398577 0.119775064 -0.22986762 0.027228944 0.042160038
-0.113648824 0.18289794 0.0050953208 0.20932356 0.16662458 -0.052081116 0.017170202 0.09598179
0.010508372 -0.009176226 -0.13317548 -0.006302281 -0.09402957 -0.13193066 -0.07225209 0.12514693
-0.13185045 0.12989733 0.002405332 -0.337983 -0.23896588 -0.04819347 -0.04780089 -0.19163062

lstm.0.weight_hh_l0 f4 [128, 32]
00000000: a60a 153e 8017 7a3d b173 b9bd 228b 36be
00000010: 5d7e 4bbd 828a d9bb 8603 ffbc 4943 c43d
00000020: d161 f5bd e131 a13c b9db 7f3d efa9 1b3e
00000030: 5ed4 14bd c718 de3c a049 5dbb c49e 1b3e
00000040: f3c2 b2bd 813f babd 8ec2 963d fb6c 163e
00000050: 450e 98bd c9de d13d 2a29 213d cee5 ecbd
00000060: 7d3e 103d fade d0bd 2b36 01bd 415e e93c
00000070: c090 e1bd 7664 ae3d 8bfe a2bd dca5 bb3a
00000080: 375e 08bd b3c9 03be bee9 b73d ddb0 253e
00000090: 8362 4e3b 7147 393d 6f14 343d ec2f 61bd
000000a0: da31 4a3e 213a 6d3d a9cc 1ebd 65ea 39be
000000b0: 8634 a5bd 99f0 0c3e df94 80bd cb35 ceb9
000000c0: 22cf 313e fc21 663d f468 d6bc ae76 d03d
000000d0: 19fa debb 373e a73c 2f48 b43d b133 b9bd
000000e0: a133 943b b316 87bc f072 6339 4ab1 343d
000000f0: ff50 8cbd 3a9e 06be 6dfe 61bd 42b1 ba3c
00000100: b106 90bb ad76 18ba 128b 0fbe d2b5 373d
00000110: 1cc3 b5bd bc02 0abe eb6b eabc 57f4 95bd
00000120: d256 0b3d cb25 053d f215 5cbe e7bf 46bd
00000130: e8d6 71bd 901a ca3b e7ad b63d fe84 76bd
00000140: 2155 8a3d b084 363d 7ea7 c33d 763d cbbd
00000150: db22 82bd 7e82 103e 90b0 893d d12f 00be
00000160: 92fa 923d 2a66 e63d dc39 19be 9295 c03d
00000170: 78fb 833d 8897 ac3c 3e05 023e fe9a 493d
00000180: 590f 0a3d c70d dcbc 9e00 c53c 9bc2 663d
00000190: 2a71 aa3d 8635 d83b b032 983d a8ca 1e3d
000001a0: 17ec b8bd 4f3c 62bb 2830 843d be50 14bb
000001b0: 8e38 6f3d 089c 1e3c f8a3 5b3d b23c 73be
000001c0: 091e 7b3d f960 22be 90b9 24bc 986f 43be
000001d0: 9ac4 9dbd b412 133e 9eb0 933d 8a15 a43d
000001e0: 101a dc3d 6ea8 90bc fcab 863d 9e17 8bbd
000001f0: 5f29 43bc 0a24 29be 8400 f93d a52f b7bd
00000200: c4a5 643d 97ce 203d abb8 04bd 9374 e1bb
00000210: 409e 04be 89ce 813c 0961 e13d a2d7 6a3d
00000220: 9628 943c 3f33 3ebd 231d 093e f6c7 bcbc
00000230: c250 a1bc 35cf abbd d65f 8fbb bbf1 4b3e
00000240: ee12 16be 722a 983d d820 94bd 39db b93b
00000250: 9142 0c3d 64bf 4bbd 0610 afbc f993 093e
00000260: c3de 87bd 99fc 2abe e000 90bd 637c 8bbd
00000270: 4347 023d 5d58 dabc d4f3 ec3b 2fe2 04be
00000280: 7732 9bbd 3965 0dbe efdd 473c ed9a 17be
00000290: 8575 71bd 514a a63d c011 3d3d 750f 0dbd
000002a0: 06ac c53c b12d 10be 1a39 d73a d023 05be
000002b0: c35d 113e 2e93 76bc 3fd5 2a3e 1681 1b3c
000002c0: 1d39 17bd 1dea 93bd 9924 d3bd 84fb 2d3e
000002d0: 09dc e83c d40d f53c dc91 58bc b0db 833c
000002e0: 863b 443d 7436 3d3d bc1f a1bd 1782 043d
000002f0: 5a83 48bd 45ec 3b3c c752 183d 8c6f febc
00000300: 5a38 0f3d ea94 8d3d f886 81bd ec82 813d
00000310: efec 78bb 15a8 a53d 5d21 3d3c 2411 3ebe
00000320: 7332 60bd 3727 9fbc aeb0 3d3d 809e 0dbc
00000330: 1239 623d 077d 2ebe 76a9 93bd 7a95 893d
00000340: e04b 89bd ecde 6bbc 139b 0e3d c30d d23d
00000350: ea4b 06bd ea8c 14be d57f 853e 1efb 57bd
00000360: dce8 803c b4fd 653c b750 5b3c 9ccb af3d
00000370: 4141 913d f3a7 ed3c 41bf 993d ea5c 233e
00000380: 9724 cf3d 0b54 f93c 9dea 1e3c bf63 623d
00000390: 8db8 7f3d 9b82 7abd d50e b73c 9b51 b03c
000003a0: b57b 1abe ba1d 0d3e 9c73 813d 2bfb 923d
000003b0: 770b 9c3d e998 bdbd 86f4 df3c d192 0fbd
000003c0: d78c eabc 5a32 613a f16f f9bd 65dc 4c3c
000003d0: 0b4f d63d 36be af3c ead9 4ebd 18c9 b7bd
000003e0: 7fb6 86bb 8b47 2b3e 814a 48bd d06b 023d
000003f0: a6e3 c4bc 7a1a 4ebe 28d5 223b e38c fe3c
0.14554843 0.061057568 -0.090552695 -0.17826512 -0.049681056 -0.006638826 -0.03112961 0.09583146
-0.119815476 0.019677104 0.062465403 0.15201543 -0.03633534 0.027111424 -0.0033765808 0.15197283
-0.0872859 -0.09094144 0.07361327 0.1469001 -0.07424597 0.10247571 0.039345898 -0.11567269
0.035215843 -0.101987794 -0.0315458 0.028487327 -0.11013937 0.08515255 -0.079587065 0.0014316398
-0.033292975 -0.12869911 0.0898013 0.16180749 0.0031491823 0.045234147 0.0439648 -0.054977342
0.1974558 0.057916764 -0.038769398 -0.1815582 -0.08066659 0.13763656 -0.06278395 -0.0003933146
0.17364171 0.056184754 -0.026173092 0.10178886 -0.0068047163 0.020415409 0.088028304 -0.090430625
0.004522756 -0.016490316 0.00021691225 0.04411439 -0.06851386 -0.13146296 -0.05517428 0.022789601
-0.004395329 -0.0005816024 -0.14017895 0.04485113 -0.08875105 -0.13477606 -0.028615912 -0.07321995
0.034018345 0.032506745 -0.21492746 -0.048522856 -0.05904284 0.0061677173 0.08919888 -0.060185425
0.06754518 0.044560134 0.09553431 -0.09923832 -0.063543044 0.14112279 0.0672313 -0.1251824
0.07176699 0.11249955 -0.14963478 0.09403528 0.06444448 0.02106835 0.12697312 0.049220078
0.033706043 -0.026862038 0.024048146 0.056337934 0.083223656 0.0065981774 0.07431543 0.038767487
-0.090294056 -0.003452081 0.064544976 -0.0022631134 0.058403544 0.009680755 0.05362317 -0.23753622
0.06130794 -0.15857305 -0.010054007 -0.19085538 -0.077035144 0.14362603 0.072114214 0.08011921
0.107471585 -0.017658439 0.06575772 -0.06791614 -0.011911719 -0.16517654 0.121583015 -0.08944634
0.05582215 0.03925952 -0.032402676 -0.006880352 -0.12950993 0.015845554 0.11004836 0.05733455
0.01808576 -0.04643559 0.13390021 -0.023044568 -0.019691829 -0.08389131 -0.004375438 0.19916432
-0.14655659 0.07429971 -0.07232827 0.0056718853 0.03424317 -0.04974307 -0.021369945 0.13435353
-0.06634285 -0.16697921 -0.07031417 -0.06810834 0.03180624 -0.026653463 0.007231215 -0.12976907
-0.07577985 -0.13808145 0.012198909 -0.14805193 -0.058949966 0.081196435 0.046159506 -0.03443857
0.024129879 -0.1407993 0.0016420216 -0.13001943 0.14195924 -0.015049739 0.1668291 0.009491226
-0.0369197 -0.07222388 -0.10309715 0.16990477 0.028425233 0.02991382 -0.013218369 0.016095966
0.04790833 0.04619451 -0.07867381 0.032350626 -0.04895339 0.011469905 0.037188318 -0.03105905
0.03496585 0.06913169 -0.06324571 0.063237995 -0.003798302 0.080887 0.011543599 -0.18561226
-0.054735612 -0.019427879 0.046311073 -0.008643746 0.055230208 -0.17039882 -0.072100565 0.067179635
-0.06703925 -0.01439641 0.03481586 0.10256531 -0.03278724 -0.1450688 0.2607409 -0.05272972
0.015736036 0.014037538 0.013385943 0.08583757 0.07092524 0.029010748 0.07507182 0.15953413
0.10114401 0.030435583 0.009699491 0.055270907 0.06243186 -0.06115971 0.02234594 0.021523288
-0.15086253 0.13780871 0.06320879 0.07176813 0.07619374 -0.09257681 0.027338278 -0.035052124
-0.02863161 0.0008590572 -0.12179554 0.012503718 0.10464295 0.021453004 -0.050500788 -0.089739025
-0.0041111107 0.1672651 -0.048899177 0.0318411 -0.024034332 -0.20127288 0.002484629 0.03107304

lstm.0.bias_ih_l0 f4 [128]
00000000: 92f3 01ba 32ca 2cbc c8a8 42bc 7f94 04bd
00000010: f5df 9dbc a867 5cbb cce9 333c 567c bc3a
00000020: 9297 393b 265c 76bc 13b2 82bc f498 f5bc
00000030: 702e 85bb 3aae 8bbc ec62 cdbc 52f2 23bc
00000040: b81a 813c 1d0a 70bc 6295 cbbc 8cb0 5fbc
00000050: 63a7 783c 3030 f6b8 1fc7 33bc 4210 29bc
00000060: 8712 5a3c 54a0 f83b 48a0 c43c f2f7 893a
00000070: 9f8e 783b 9917 1e3c 3870 b5bc 13d6 af3c
00000080: 1f86 eebb 53ce 003c d321 0c3c 54a4 6bbc
00000090: ceb0 c13a a17f e43a a841 c53c 4b65 8abb
000000a0: 1fac 8f3c 0dcd fcbb 10e1 1bbc 58e7 5abc
000000b0: 2cd9 a039 4ec7 333b 8002 69bc addf 85bc
000000c0: a4d7 843c 8147 6ebb 2fa7 36bc 1600 2dbc
000000d0: 7de3 21bc 3d4a 233c 6a77 dfba c005 05bc
000000e0: 496b 803c 637e d43b 2941 953c 8f3e 38bb
000000f0: 667f b53b 8567 5c3c b10d 59bc e462 253c
00000100: 1188 1bbc cd5c f73c 56ff b0bc e6df 7ebb
00000110: 5815 ecbc 7525 1dbc d6f2 de3c a6f2 6cbb
00000120: 5ab4 ebbc 82de 913c 1746 c5bb 941d 8dbb
00000130: 66fa d73c 9632 7fbc 0843 913b 8b74 ecbc
00000140: e66f c1bc b9f8 9f3c 057a 263c 1ab4 9a3b
00000150: 4a90 003d 92f7 bebc 9eb1 9a3b d543 81bc
00000160: b32a c4bc 23fe efbc 206b f1bc 7699 353a
00000170: b013 98bc 2b5b c73c d248 5abc 0372 db3c
00000180: 6577 a4ba 200e 68bb d394 25bc cce4 fdbc
00000190: ce0f 9abc 35ba dcbb 4547 813c 0817 6b3a
000001a0: 12c2 efb9 e9b2 7cbc 34dd 6dbc e020 d6bc
000001b0: f822 54bb 95ca 85bc 7ef7 cdbc 2df3 4abc
000001c0: 9691 8c3c 452e 06bc 938f bcbc 0cbd 8abc
000001d0: 15a8 763c 923e d53a 206c 54bc 3aa0 56bc
000001e0: c846 623c 4fb8 923b 6284 c53c 612a 07ba
000001f0: 63e4 803b 6324 e33b 5e7e a8bc 4d66 b83c
-0.0004957254 -0.010546254 -0.011881061 -0.03236818 -0.01927183 -0.003363112 0.0109810345 0.0014380317
0.0028319103 -0.015036618 -0.015954053 -0.02998016 -0.0040643737 -0.017050851 -0.025071584 -0.010006504
0.01575981 -0.014650849 -0.024851505 -0.013652932 0.015176627 -0.0001173917 -0.010972767 -0.010318818
0.013310081 0.007587472 0.02400221 0.0010526164 0.0037926806 0.009649181 -0.022148237 0.021464383
-0.007279172 0.0078616915 0.008552986 -0.014382441 0.0014777423 0.0017433056 0.024079159 -0.004223501
0.017538128 -0.0077148736 -0.009514108 -0.013360821 0.00030679384 0.0027432027 -0.014221787 -0.016342008
0.016216107 -0.0036358538 -0.011148258 -0.0105591025 -0.009880898 0.00996643 -0.0017049138 -0.008119047
0.015676158 0.006484793 0.018219547 -0.002811346 0.0055388687 0.013452415 -0.013247893 0.010094378
-0.00949289 0.030195618 -0.021606129 -0.0038890778 -0.028818771 -0.00959145 0.027215403 -0.0036155372
-0.028772522 0.017806295 -0.0060203183 -0.0043065045 0.026364516 -0.0155760255 0.0044330396 -0.028864166
-0.023612928 0.01952778 0.010160928 0.004721177 0.031387605 -0.02331141 0.0047208806 -0.015779415
-0.023946142 -0.029295987 -0.029470026 0.00069274695 -0.018564075 0.024335464 -0.013323026 0.026787763
-0.0012547789 -0.003540881 -0.010106283 -0.030992888 -0.018806364 -0.006736065 0.015781054 0.00089679705
-0.00045730226 -0.015423515 -0.014518071 -0.026138723 -0.0032369476 -0.01633195 -0.025142428 -0.012387079
0.017159265 -0.008189742 -0.02301768 -0.016935848 0.015054722 0.0016269258 -0.012965232 -0.013099724
0.013810821 0.0044775377 0.024110977 -0.0005156156 0.003933476 0.006931828 -0.02056807 0.022509718

lstm.0.bias_hh_l0 f4 [128]
00000000: 72f3 01ba 32ca 2cbc caa8 42bc 7f94 04bd
00000010: f7df 9dbc a467 5cbb cde9 333c 5a7c bc3a
00000020: 9697 393b 255c 76bc 12b2 82bc f698 f5bc
00000030: 752e 85bb 3aae 8bbc eb62 cdbc 4cf2 23bc
00000040: b91a 813c 1e0a 70bc 6295 cbbc 8cb0 5fbc
00000050: 62a7 783c b630 f6b8 1fc7 33bc 4110 29bc
00000060: 8312 5a3c 4ea0 f83b 48a0 c43c f1f7 893a
00000070: 998e 783b 9617 1e3c 3b70 b5bc 13d6 af3c
00000080: 1f86 eebb 56ce 003c d321 0c3c 55a4 6bbc
00000090: d4b0 c13a a17f e43a aa41 c53c 4e65 8abb
000000a0: 1eac 8f3c 10cd fcbb 10e1 1bbc 56e7 5abc
000000b0: 08d9 a039 4fc7 333b 8202 69bc aedf 85bc
000000c0: a5d7 843c 9147 6ebb 30a7 36bc 1900 2dbc
000000d0: 7ee3 21bc 3d4a 233c 6a77 dfba c105 05bc
000000e0: 486b 803c 667e d43b ad3f 953c 8f3e 38bb
000000f0: 667f b53b 8567 5c3c b00d 59bc e562 253c
00000100: 1188 1bbc ce5c f73c 56ff b0bc ebdf 7ebb
00000110: 5515 ecbc 7425 1dbc d7f2 de3c 95f2 6cbb
00000120: 58b4 ebbc 81de 913c 1746 c5bb 901d 8dbb
00000130: 65fa d73c 9632 7fbc 0c43 913b 8b74 ecbc
00000140: e46f c1bc b9f8 9f3c 067a 263c 1cb4 9a3b
00000150: 4a90 003d 91f7 bebc 9cb1 9a3b d443 81bc
00000160: b42a c4bc 23fe efbc 206b f1bc 6f99 353a
00000170: ae13 98bc 2a5b c73c d548 5abc 0672 db3c
00000180: 7677 a4ba 180e 68bb d494 25bc c8e4 fdbc
00000190: cc0f 9abc 2fba dcbb 4647 813c 3017 6b3a
000001a0: 26c2 efb9 e8b2 7cbc 38dd 6dbc de20 d6bc
000001b0: f022 54bb 95ca 85bc 7ef7 cdbc 2df3 4abc
000001c0: 9591 8c3c 452e 06bc 938f bcbc 0bbd 8abc
000001d0: 1aa8 763c 963e d53a 1c6c 54bc 3aa0 56bc
000001e0: c646 623c 4ab8 923b 6184 c53c 742a 07ba
000001f0: 65e4 803b 6b24 e33b 5e7e a8bc 4c66 b83c
-0.00049572357 -0.010546254 -0.011881063 -0.03236818 -0.019271834 -0.003363111 0.010981035 0.0014380321
0.0028319112 -0.015036617 -0.015954051 -0.029980164 -0.004064376 -0.017050851 -0.025071582 -0.010006499
0.015759813 -0.01465085 -0.024851505 -0.013652932 0.015176626 -0.00011739267 -0.010972767 -0.010318817
0.013310078 0.007587469 0.02400221 0.0010526163 0.0037926792 0.009649178 -0.022148242 0.021464383
-0.007279172 0.007861694 0.008552986 -0.0143824415 0.001477743 0.0017433056 0.024079163 -0.0042235022
0.017538127 -0.007714875 -0.009514108 -0.013360819 0.0003067928 0.002743203 -0.014221789 -0.01634201
0.016216109 -0.0036358575 -0.011148259 -0.010559105 -0.0098808985 0.00996643 -0.0017049138 -0.008119048
0.015676156 0.0064847944 0.01821884 -0.002811346 0.0055388687 0.013452415 -0.013247892 0.010094379
-0.00949289 0.03019562 -0.021606129 -0.003889079 -0.028818766 -0.009591449 0.027215404 -0.0036155332
-0.028772518 0.017806293 -0.0060203183 -0.0043065026 0.026364515 -0.0155760255 0.0044330414 -0.028864166
-0.023612924 0.01952778 0.010160929 0.0047211777 0.031387605 -0.023311408 0.0047208797 -0.015779413
-0.023946144 -0.029295987 -0.029470026 0.00069274654 -0.018564072 0.024335463 -0.013323029 0.026787769
-0.0012547809 -0.003540879 -0.010106284 -0.03099288 -0.01880636 -0.006736062 0.015781056 0.0008967994
-0.00045730284 -0.015423514 -0.014518075 -0.02613872 -0.0032369457 -0.01633195 -0.025142428 -0.012387079
0.017159263 -0.008189742 -0.02301768 -0.016935846 0.015054727 0.0016269262 -0.012965228 -0.013099724
0.013810819 0.0044775354 0.024110975 -0.00051561673 0.0039334767 0.0069318316 -0.02056807 0.022509716

fc.weight f4 [2, 32]
00000000: 337b 8ebd 6c20 393d 02ab 153e 9740 563d
00000010: 45f9 a13c ad05 a3bd c457 58bd 520f 303e
00000020: 31c3 3cbd 0c5c 103e ccc8 413d c165 b03d
00000030: c53f 783d 8f65 703d 4095 0c3e e117 a9bd
00000040: 082b 813d 2ab6 0a3d 6d5e 54bd a548 1e3e
00000050: 469f c1bc 8bcb 163e 2d71 ff3d 777a 0cbe
00000060: 687c 053e 66b6 8c3c 4b31 063d 04ac 263e
00000070: 1b82 e33d 3041 073e 9c7b 0abe 37f7 1cbd
00000080: e379 ca3d ca36 28be 2838 0a3e 083e 023c
00000090: 3532 8f3d fb0e fd3c 0d8a 11be 6b97 4dbd
000000a0: 1ba4 cb3d b2a9 21be c103 b33c dd5b 3bbb
000000b0: dc00 e5bd bc84 873a 96af b0bd 94b5 a13d
000000c0: c18d 123e 54f6 72bd 3cb1 5cbc a63d 9cbd
000000d0: 1111 2abe 2853 2c3e 99c4 8abd e373 333e
000000e0: 433f fa3d 00cf 393e 8cb6 1a3e 0ae2 d0bd
000000f0: 3336 3e3d f5bd 24be 552a c23d f76d 3abe
-0.06957092 0.045196936 0.14616016 0.05230769 0.019772181 -0.07960067 -0.052818075 0.17193344
-0.046084587 0.14097613 0.047310635 0.08613158 0.06060769 0.058690604 0.1372881 -0.08256508
0.06307036 0.03386513 -0.051847864 0.15457399 -0.023635518 0.14726083 0.124727584 -0.13718592
0.13035738 0.017176818 0.032761853 0.16276556 0.111088 0.13208461 -0.13523716 -0.0383217
0.09886529 -0.1642715 0.13497984 0.00794936 0.06991998 0.030890932 -0.14212818 -0.05019323
0.0994341 -0.1578739 0.021852376 -0.002858869 -0.111818045 0.001033924 -0.0862724 0.078959614
0.14311887 -0.059316948 -0.01346999 -0.07628946 -0.16608073 0.16828597 -0.06775779 0.17524676
0.122190975 0.1814537 0.15108699 -0.101993635 0.046438407 -0.16088088 0.094807304 -0.18206011

fc.bias f4 [2]
00000000: e845 803d 6de9 cd3d
0.062633336 0.10054288
